model.pt (torch, 722805 bytes, 16 tensors)

conv1.weight f4 [32, 1, 7, 7]
000000 77 b5 87 3c a4 65 13 3e 7e fd b1 be 45 e1 ca bb
       0.016566021 0.14394242 -0.34763712 -0.006191405
000010 6e 0b 1a be 5b 62 29 be 7b dc 3b 3e e0 48 13 3d
       -0.15043423 -0.16541426 0.18345825 0.03595817
000020 39 2f 6f bd f8 7b a8 bd 04 1d 30 3d 82 d4 00 be
       -0.058394644 -0.0822677 0.04299642 -0.12581065
000030 ff 55 3b be 6c 05 e5 bb 37 85 e6 bd 14 ef ce bd
       -0.18294524 -0.0069891717 -0.112558775 -0.10104194
000040 95 6b de 3d d4 3e 97 bc d8 f7 78 bd 0c dd 99 bd
       0.108603634 -0.018462576 -0.060783237 -0.075128645
000050 f4 dc 34 bb 98 a8 3b bd e7 d5 12 be 60 30 74 3e
       -0.0027597519 -0.04581508 -0.1433941 0.23846579
000060 36 79 6b ba e9 15 0c be 1a 88 cb 3b 0c b0 54 3d
       -0.00089826004 -0.13680233 0.006211293 0.051925704
000070 ef 81 b8 3d 49 08 43 3c 44 31 b9 bd f4 84 04 3e
       0.09009158 0.011903831 -0.090426 0.12941343
000080 45 15 88 3b d5 02 e7 3d 62 2b d8 3c c1 48 2c 3d
       0.004152926 0.11279837 0.026387874 0.04206157
000090 d6 56 02 3b 24 25 92 3c 83 40 8d 3d 0f a5 e8 3d
       0.0019888184 0.017839976 0.0689707 0.113596074
0000a0 d3 67 44 bd 30 30 15 3e 24 f2 f1 3b 7b 1a 05 be
       -0.047950577 0.14569163 0.0073836017 -0.12998383
0000b0 bd a5 20 bd e0 4c 0a 3d 75 4c 31 bd 89 bf ae bd
       -0.03922056 0.03376472 -0.043285806 -0.08532626
0000c0 f8 28 29 3e f9 72 f9 bb 17 24 1a 3c 93 fa c8 3d
       0.16519535 -0.0076125828 0.009408019 0.09813418
0000d0 b8 84 fc bd 95 49 b6 bd 9a 23 db 3c cf c4 74 be
       -0.123300016 -0.089007534 0.026750375 -0.23903202
0000e0 e0 12 42 3d c7 87 f8 3c 38 05 84 bd 79 3f a9 3d
       0.04738128 0.030338181 -0.06446308 0.082640596
0000f0 ca ae 90 bd d8 dc 4c be b0 5d 60 bd a9 83 86 bd
       -0.07064588 -0.2000612 -0.054776847 -0.06568081
000100 40 59 1a 3d e6 d8 b7 bb 21 f3 e5 3d 46 6c 05 3a
       0.03768277 -0.005610573 0.11228014 0.00050896814
000110 9a 76 56 be 7a e0 90 3d 0b b8 33 bd 4d 87 d8 3d
       -0.2094368 0.070740655 -0.04387669 0.105726816
000120 17 86 bb bc fd f5 cf bb f6 ee d0 bd c8 9a 1d be
       -0.022891087 -0.0063464628 -0.10201828 -0.15391076
000130 80 7e ff bd df 55 3a 3d f0 ea 10 bc 0d c6 0f bd
       -0.124753 0.04549205 -0.008845076 -0.035100985
000140 0f a6 ef 3c 35 e5 0c 3d c7 97 85 3d 41 f2 86 bd
       0.029253988 0.034398276 0.0652309 -0.06589175
000150 5f a1 7c 3d b1 22 7b bc cf cf 33 3e d7 f9 0d 3c
       0.061677333 -0.015328095 0.17559741 0.0086655235
000160 c3 c2 ba bd 8d 85 0a 3e 10 2f b7 bd 3d de 99 bc
       -0.09119179 0.13527508 -0.08944523 -0.01878273
000170 4e 40 19 3e 72 08 e8 3c 58 73 07 3d 36 e6 47 bc
       0.14965937 0.02832434 0.033068985 -0.012200883
000180 27 28 44 3e be 24 b6 3d f3 7a 14 3d 03 80 41 3d
       0.19155942 0.08893727 0.036250066 0.047241222
000190 d3 6e 20 be 9c 9c 5e bb 47 bf c6 3b 99 00 b1 3d
       -0.15667276 -0.0033967858 0.0060652825 0.08642692
0001a0 28 08 0a 3e 81 cd ba 3c dd 63 9f 3c 35 a8 22 bd
       0.13479674 0.02280307 0.019456798 -0.039711196
0001b0 1f 4d 36 bd 1c 45 f7 3d bb a4 01 bc 9e fe 2e 3d
       -0.044507142 0.120737284 -0.00791281 0.04272329
0001c0 6d 3f c3 3d 89 1a 48 bd 58 2d 10 be 61 a9 25 bd
       0.09533582 -0.04885343 -0.14079797 -0.040444735
0001d0 dd 96 bc bd 81 54 21 3d 86 9a 50 3d 29 85 24 be
       -0.092084624 0.03938723 0.050928615 -0.16066422
0001e0 d4 71 e2 3d 28 51 90 bd e0 33 54 be 73 a8 bd bb
       0.11056867 -0.07046729 -0.20722914 -0.005787903
0001f0 c1 27 cf 3c 77 8a 52 3d f4 3a 48 bd aa dd 35 bd
       0.02528751 0.05140158 -0.048884347 -0.04440085
000200 4e 02 df bc 0d 3d 5d 3e cf 00 9b bd 6a 78 05 3d
       -0.027222779 0.2160532 -0.075685136 0.03258554
000210 9a db 10 3d 39 56 e5 3d 07 87 d6 bd 4f 1b 99 3d
       0.03536568 0.11198086 -0.10474973 0.07475912
000220 99 c7 0f 3c ca 22 16 3c 5e c0 4f bd 5d ae a5 3d
       0.008775615 0.009163568 -0.050720565 0.08089898
000230 3e 23 fe bc a3 3b e1 3d b4 82 09 bd c8 4d 45 3c
       -0.031022664 0.10997703 -0.033571914 0.01204247
000240 d1 fd 25 3e c9 fd 36 3d b1 4d a3 bd d7 8e 85 3d
       0.16210105 0.044675622 -0.07973803 0.06521385
000250 01 b7 29 3e 67 26 ab bd ab e0 e0 bb 0d 3f 94 bd
       0.16573717 -0.08356934 -0.00686272 -0.072385885
000260 1b dd 0e bb 4b ce bf 3d 81 62 4e 3e d2 a6 4c bd
       -0.002179927 0.09365519 0.20154764 -0.04996378
000270 ae 28 83 bc 63 16 ea bc d1 06 f7 bb e0 c2 69 3d
       -0.016010609 -0.028575128 -0.0075386544 0.057070613
000280 9e 87 fa bc df 4a 8b 3d 8b 4a 13 3b a4 37 ef 3d
       -0.030582245 0.0680139 0.002247485 0.116805345
000290 f8 f3 02 3d 17 73 ff bd 57 aa ba 3c 72 96 06 bd
       0.031970948 -0.124731235 0.022786302 -0.03285832
0002a0 26 11 88 3d 88 24 f2 3d 09 91 d7 bd 0c 73 64 bd
       0.06643896 0.11823374 -0.1052571 -0.05577378
0002b0 b6 ed 98 bc f4 11 3b 3e 31 57 1d bd a8 47 59 be
       -0.018668037 0.18268567 -0.03841323 -0.21218741
0002c0 7d 4a 83 3c 69 b4 20 bd 3b 3b 6f bd 55 5b 57 3c
       0.01602673 -0.039234553 -0.058406096 0.013144334
0002d0 ad d3 a5 3e 3c 43 47 bc a1 52 8d bd e1 6b 0f 3e
       0.32388058 -0.012162026 -0.06900526 0.14005996
0002e0 8b b2 cc 3d 47 43 d0 bc 83 93 8a 3d cd bb 6c bd
       0.09994992 -0.025422705 0.06766417 -0.05779629
0002f0 22 be 04 be ba c4 02 be 58 1e a6 3d 02 c8 b4 3b
       -0.12963155 -0.12770358 0.08111256 0.005517007
000300 82 81 98 bd 67 83 0c be 12 70 27 bc a8 1e a3 bb
       -0.07446577 -0.13722001 -0.010219591 -0.0049780197
000310 10 8e 72 be f6 61 50 3d f2 98 10 bd 71 28 54 bc
       -0.23687005 0.050874673 -0.03530211 -0.012949095
000320 cd cb 4e 3d 0d a6 92 bd 40 a3 20 3d 11 48 d9 bd
       0.05048733 -0.07160578 0.039218187 -0.10609449
000330 38 d7 0d bd 90 89 64 3d 25 33 95 3d c2 b7 57 3c
       -0.034629077 0.055795252 0.07285146 0.01316637
000340 d6 d1 05 bc 11 48 37 3e 09 ee b0 bd 5d 63 d2 3d
       -0.008167705 0.17898585 -0.086391516 0.10272858
000350 86 6b cc bd 6c d6 b4 bd 12 eb 9a bc aa 8a e1 3c
       -0.09981446 -0.0882996 -0.018910918 0.02753194
000360 53 20 31 bd cf eb b1 bd 29 66 50 bd 6b 24 f0 bc
       -0.043243717 -0.08687555 -0.050878678 -0.02931424
000370 ac ff 6f 3d 03 58 91 3d 49 5a 61 bb 05 e3 05 3d
       0.058593437 0.07096865 -0.003438609 0.032687206
000380 c0 3c 9e bc 76 36 3f be f3 15 12 be 03 b9 fd bd
       -0.019316077 -0.18673119 -0.14266185 -0.12388804
000390 57 ee 7c bd 4a 39 4e 3e 67 74 3c be 89 65 43 bd
       -0.061750736 0.20139042 -0.18403779 -0.047704253
0003a0 f7 36 f6 bd bb 75 84 3c 23 3f c9 bd 55 68 54 bd
       -0.120222025 0.01616942 -0.098264955 -0.05185731
0003b0 a7 5a 0e 3e 93 bd d1 bc 3d da 84 3d c5 f6 b4 3d
       0.13901769 -0.025603091 0.06486938 0.0883613
0003c0 4c 1f 7f bd 66 6b 59 be bc b2 3d 3d 80 dd d1 3d
       -0.062285706 -0.21232376 0.046313033 0.10247326
0003d0 86 2b 33 3d 65 96 11 3d c8 d0 e3 bc 36 19 09 be
       0.04374268 0.035543818 -0.027809516 -0.13388523
0003e0 8c 5d dd bc 18 96 7f 3b 94 d1 fc bd ad e3 53 be
       -0.027022146 0.0038999375 -0.12344661 -0.2069232
0003f0 46 12 24 bd 55 d6 0b 3e 5a 37 99 bd 30 bc ba 3d
       -0.04005649 0.1365598 -0.074812606 0.09117925

conv1.bias f4 [32]
000000 95 f9 58 3d 68 ac a5 3d fc b8 15 bd b2 4b 0b be
       0.052972395 0.080895245 -0.036553368 -0.13603094
000010 c9 d4 16 be 45 75 8f 3d be a3 5c be 6e 1f 02 be
       -0.14729609 0.07004789 -0.21546838 -0.12707302
000020 38 35 f7 3d e7 3f 5d bb 9f a5 08 3e 5c 28 72 bc
       0.120706975 -0.0033760013 0.1334443 -0.01478013
000030 db 4a 90 bd 0d fe 08 3e 77 41 6a 3e d2 29 10 3d
       -0.070455275 0.13378163 0.22876535 0.035196133
000040 93 ac 83 bc 65 3f 8d 3d 52 c9 01 3d 93 a1 c7 bd
       -0.0160735 0.06896857 0.031686135 -0.09747615
000050 fb a5 c1 3d 72 50 93 3d 2a 72 5d 3a 78 03 e8 bd
       0.094554864 0.07193078 0.0008447493 -0.113287866
000060 d4 d7 56 3d c5 2e 56 bd 92 b0 d5 bd fe 2f 69 3c
       0.052451923 -0.052290697 -0.10434069 0.014232634
000070 29 b0 21 bd 24 95 3d 3c ae 8d be 3d 18 1d f7 3c
       -0.03947464 0.011571202 0.09304367 0.03016524

conv2.weight f4 [64, 32, 5, 5]
000000 5d 5b ae 3d ca c8 16 bd 55 b6 e6 3c 4b 4e f1 3d
       0.0851352 -0.03681258 0.028163115 0.11782511
000010 dd 4a 94 bb 9f b2 89 3d df fa ff 39 bb fa e3 bd
       -0.004525526 0.067235224 0.00048824304 -0.111318074
000020 dc c6 03 bd 34 a4 1b 3e 42 73 75 3d f5 0b 80 bc
       -0.03217207 0.15199357 0.05992437 -0.015630702
000030 ba 46 4e 3c f6 dd 0d be a1 92 07 be b1 83 cf 3d
       0.012590105 -0.13854203 -0.13239528 0.1013254
000040 5c 13 fa 3c 4b 30 2c 3c e4 4c 89 bd 91 eb 93 bd
       0.03052681 0.010509561 -0.06704119 -0.07222665
000050 0c 49 f7 bd e2 71 0f 3d 83 db ca 3e 2d 86 c3 bb
       -0.120744795 0.035020716 0.396206 -0.0059669227
000060 1d 12 17 3d e9 23 18 3e 9f de 3a bd c9 a8 91 3c
       0.03688251 0.14857449 -0.045622464 0.017780678
000070 79 9b fc 3d e7 13 cc bd d7 1f 2e 3e 3a 4a b0 3d
       0.123343416 -0.099647336 0.17004333 0.086079076
000080 19 c7 28 3e af f2 6f bd 5e 74 c9 3d dc 86 7b 3d
       0.164822 -0.05858105 0.098366484 0.06140791
000090 d0 b9 d0 bd 6b 4f 05 3e d9 a3 87 3c 4f af d5 3d
       -0.10191691 0.13018577 0.01655762 0.10433828
0000a0 67 af 1a be 10 3b 59 be 20 56 d0 bd 3b d2 c6 3d
       -0.15105973 -0.21213937 -0.10172677 0.09708067
0000b0 9f ec 95 3e ef 07 a5 3d a2 69 3c bc c1 93 b8 3d
       0.2928209 0.08058154 -0.011499794 0.09012557
0000c0 d2 6f e6 3d a3 f0 c9 bc d6 30 42 3b 40 fc 4f 3d
       0.11251797 -0.024650877 0.002963116 0.050777674
0000d0 0d 9e bc bd 9f ca c6 3d 9a c8 84 bd be b8 9b bd
       -0.09209833 0.09706616 -0.06483574 -0.07603596
0000e0 89 28 05 bd 6c f4 85 bd 2d 85 cb bd 9a fe 13 3d
       -0.03250936 -0.065407604 -0.09937511 0.03613148
0000f0 82 b7 2a 3d 6f f6 df bd f3 99 58 be c4 2c db bd
       0.041678913 -0.10935675 -0.21152477 -0.10701898
000100 97 5f 9a bd 37 b9 e1 bc fb 8a 0b 3c a2 68 a0 3d
       -0.075377636 -0.027554138 0.008517022 0.07832457
000110 b0 ba 32 3c 14 18 7d be e5 84 df bc 18 0f b1 bc
       0.010908768 -0.24716216 -0.027285049 -0.021613643
000120 ea ac e9 bd ea 67 98 bd ad b5 13 3e 12 53 04 bd
       -0.11409934 -0.07441695 0.14424773 -0.032305785
000130 0a e5 27 be fc 3e 3a 3e 7a d0 c0 bc 33 ca 40 3d
       -0.16395965 0.18188089 -0.02353691 0.047067832
000140 59 a3 a6 bd e2 d1 6f bd 11 eb 43 3e 0a ae 18 be
       -0.08136625 -0.05854977 0.1913264 -0.1491014
000150 91 72 09 3e aa 75 9b bc c9 fb 94 bd 7f 69 0c bd
       0.1342261 -0.018977005 -0.07274587 -0.034280296
000160 67 54 92 3c dd 63 93 3c c9 d0 80 3d 41 9d 1c be
       0.017862512 0.017991954 0.062898226 -0.15294363
000170 ed 9c 50 bc 95 ea 6b bd 2d a8 f0 3d 4b 5e 31 3e
       -0.0127327265 -0.05759676 0.11750827 0.17321126
000180 6e a5 c2 bd e5 c2 4e 3d 6b 5b b3 3d ba e7 30 3e
       -0.095042095 0.050478835 0.08757671 0.17275897
000190 71 72 5a 3d 9a 55 8e 3d 16 e5 06 3c 2a 9a 40 be
       0.053331796 0.06949921 0.008233329 -0.18808809
0001a0 db 12 9b 3d 9e a1 0b be 61 fe 25 be c0 a5 41 bd
       0.07571956 -0.13635871 -0.16210319 -0.047277212
0001b0 e5 b6 bd 3d 47 ba 98 be 78 17 b6 3b 3b 4e dc bd
       0.092634 -0.29829618 0.005556997 -0.10757109
0001c0 2b 45 60 3e e1 62 49 3d b7 5c 43 be 0f 6b 43 bd
       0.21901385 0.049166564 -0.19078337 -0.04770952
0001d0 19 f1 01 be 9c cd b8 3d 1c 9b d5 bc 48 6e 75 be
       -0.12689628 0.09023592 -0.026074938 -0.2396785
0001e0 e1 ec fd bc e9 35 51 3d be a2 d4 be f6 e4 c3 bd
       -0.030996742 0.051076803 -0.41530412 -0.09565155
0001f0 ec 3c 33 3e 4f 2b f0 3c 64 24 a9 be 5c b3 a9 bd
       0.17503709 0.029317526 -0.33035576 -0.08286163
000200 ad 2b d5 bc 39 f1 47 3d 54 d6 7b bd 3f 25 b7 3b
       -0.026021803 0.048814032 -0.061483696 0.005589157
000210 6b 02 95 3d 9c 4f 00 be f9 bc 9f 3d 82 be da 3c
       0.07275852 -0.12530369 0.077997155 0.02670217
000220 08 c6 2d 3d f6 f4 a2 3d 0d ad 48 3c cc 8d 42 3e
       0.042425185 0.07956879 0.01224829 0.18999404
000230 a4 59 83 3d f4 d5 b3 3d e2 3d 35 3e c2 c9 2f be
       0.06413582 0.08781043 0.17699388 -0.17166808
000240 25 21 25 3c 6c bf 7d 3e 84 b3 1a 3d 39 f9 08 bd
       0.010078703 0.24780053 0.037768856 -0.033440802
000250 3e e1 f0 3d 30 7f 90 3e db 1a 8a bd 94 75 0b be
       0.117617115 0.28222036 -0.067434035 -0.13619071
000260 38 e2 08 3d 55 fa 96 3d 02 cc 1a 3d bc dc 39 3d
       0.033418864 0.07371966 0.037792213 0.045376524
000270 60 fa 10 be 6f a3 80 3d 24 07 fe bd 11 ee a2 bd
       -0.1415801 0.062811725 -0.12403706 -0.07955564
000280 8e 3e 3a 3e 20 79 66 3e a2 b9 68 be fa 7f 34 be
       0.18187925 0.22507143 -0.22727063 -0.17626944
000290 07 0d 28 be 17 33 38 be 1f 6e 93 3d 2a 48 72 bc
       -0.1641122 -0.17988239 0.07198738 -0.014787713
0002a0 1b cf 18 3d a2 98 83 bd bf 46 68 3d 93 78 09 3d
       0.037306886 -0.06425597 0.056708094 0.033562254
0002b0 af fe 56 bd ac ec 8a 3d b0 4b 16 be 4c fd 46 bc
       -0.05248898 0.06783423 -0.1467731 -0.012145352
0002c0 04 2c d1 bb fc 7d 14 3c 84 b3 f0 bd 05 af 75 3d
       -0.006383421 0.00906324 -0.1175299 0.059981365
0002d0 4e 89 83 bd 39 0e 43 bc f3 a0 73 bd ca c8 41 be
       -0.06422673 -0.011905246 -0.059479665 -0.18924251
0002e0 a4 f1 2a bd 84 7f bb bc 55 86 1d be 07 1e b8 3d
       -0.041734353 -0.022887953 -0.15383275 0.08990102
0002f0 78 62 fe 3d b5 62 84 bd d6 00 cc 3c 2e 08 7e 3e
       0.12421125 -0.06464139 0.024902742 0.24807808
000300 b2 27 06 3d 33 df b8 bd 5a 36 ee bd 4b 59 50 3e
       0.0327527 -0.09026947 -0.116314605 0.20346563
000310 b6 f6 13 3d 1c 56 eb 3c 5c 82 fe 3d 28 f1 80 bd
       0.036123954 0.028727584 0.12427208 -0.06295997
000320 75 9c 5e 3d 2c 69 ee 3d 6d 81 a8 bd 3f dc 26 3d
       0.054348428 0.11641154 -0.08227811 0.040737387
000330 fd f2 e5 3d 4c e6 52 3d a5 7d 6a bd 5a 1b 08 bb
       0.11227987 0.05148916 -0.05724873 -0.0020768256
000340 0e 0a ef 3c fa 88 ca 3d 3b af ba bd de 8a 89 bd
       0.0291796 0.098894075 -0.09115454 -0.0671594
000350 c8 21 1e 3e ba 3e ef 3d 0f 01 4d 3d 78 eb 9b 3d
       0.15442574 0.11681886 0.050049838 0.076132715
000360 ee 74 5d bd 31 c2 9c 3c f7 77 4a bd c4 0c fb bc
       -0.05406659 0.019135566 -0.049430814 -0.030645736
000370 96 78 bd 3d 4f 14 38 3e fb 97 00 3a e8 4e 85 bd
       0.092515156 0.17976497 0.00049054594 -0.06509191
000380 b6 4b 18 bd f6 d9 5e bd ec 3f d3 bc b6 7d 3b 3e
       -0.03718158 -0.054407082 -0.025787316 0.18309674
000390 0b 5b 0c 3d 0d 77 0d 3e 4f c9 ba 3d d8 9f 2c 3c
       0.034266513 0.13814946 0.09120428 0.010536157
0003a0 0e 3d 2f bd 6b e9 ae bb bb ff e7 bd 4d 85 11 3d
       -0.042782836 -0.005337884 -0.113280736 0.035527516
0003b0 e5 ea 6b bd 3e 04 dc bd a1 08 fb bd ef f4 05 3e
       -0.05759706 -0.10742997 -0.12257505 0.13081716
0003c0 fd c6 60 bd 80 93 ca bd 79 c1 32 be 28 58 22 3d
       -0.05487727 -0.09891415 -0.17456616 0.039634854
0003d0 73 ae 2c 3d fe bb 05 bd fc 9a a5 bb cc 8a 41 3e
       0.042158555 -0.032649986 -0.005053876 0.18900603
0003e0 e5 30 44 be b1 d8 41 bd a0 b1 32 be 3d 16 b6 3b
       -0.19159277 -0.047325794 -0.17450571 0.00555685
0003f0 50 61 6e be 47 19 7b 3c d0 41 81 bd 95 9f ec bd
       -0.2327931 0.015325851 -0.06311381 -0.11553875

conv2.bias f4 [64]
000000 50 d8 d8 3c 6e 07 2d 3d 1f 6c a3 bd a3 8c 32 bd
       0.026470333 0.042243414 -0.07979607 -0.043591153
000010 f7 73 c6 3c e3 b3 6e 3d 45 f7 82 bd 5a 15 1e 3e
       0.024225218 0.058277022 -0.06394819 0.15437832
000020 15 f6 0a bd 3e 5e 77 bc 5a 1d e6 bc aa 4a ab bd
       -0.03392609 -0.015098153 -0.028090168 -0.083638504
000030 f6 e2 1e 3e 61 e9 48 bb 95 a8 26 bd 64 e9 6d be
       0.15516266 -0.0030656683 -0.040688116 -0.23233563
000040 c2 a0 85 3e 2e 2a 84 be 51 54 36 3e 5c 5d 42 3d
       0.2609921 -0.2581343 0.17805602 0.047452316
000050 3a 1a d5 ba 5f c4 06 be 1a 31 60 be 86 b9 cf bd
       -0.0016258426 -0.13160847 -0.21893731 -0.10142808
000060 27 e5 87 3a 03 1b 45 3c d3 3a 96 3d 49 51 05 3e
       0.0010367975 0.012030366 0.073354386 0.13019289
000070 2c 35 88 bd 93 87 83 3c e4 52 3c bc 2d e6 0e be
       -0.06650767 0.016055858 -0.011494372 -0.13954993
000080 60 19 fb 3d fe 00 59 be 4e bc a1 bc 94 46 a2 3c
       0.12260699 -0.21191785 -0.019743111 0.019809045
000090 98 9b 05 3e 03 61 bc bc 8b c7 9b bc 3b b4 f6 3c
       0.13047636 -0.022995478 -0.019016048 0.030115237
0000a0 f8 04 fc bd fe f8 d0 bd f1 59 06 3e a2 ed 2d be
       -0.12305635 -0.102037415 0.13120247 -0.16985181
0000b0 af e0 29 bd be fe 89 bd 20 ae b1 bd 6e 52 98 3d
       -0.04147404 -0.06738041 -0.0867579 0.07437597
0000c0 33 2d da 3d 28 74 29 bd 86 ca 25 be 89 59 0b 3e
       0.10653152 -0.04137054 -0.16190538 0.13608374
0000d0 b1 12 9e bd a7 27 81 bc ac df 82 3e 49 08 dc bd
       -0.07718409 -0.015765978 0.25561273 -0.10743768
0000e0 66 b6 af bd be 8a 66 3c b1 40 a6 bd 10 46 90 bd
       -0.085797116 0.014071165 -0.08117808 -0.07044613
0000f0 23 9d 2d 3d c9 c2 67 3d 29 cc 34 3e 65 2a 0a be
       0.042386185 0.056582246 0.17656006 -0.13492735

conv3.weight f4 [128, 64, 3, 3]
000000 8d e3 24 be 77 86 2b be 33 99 ee bb fc 45 12 3c
       -0.16102429 -0.16750513 -0.0072814464 0.008927818
000010 48 e4 ed bc 67 9e 6e 3d f4 5e 9e be 60 1c 28 b8
       -0.029039517 0.058256533 -0.30931818 -4.0080748e-05
000020 b6 06 8c bd ad e3 8d 3d 9a b4 06 3d d3 74 89 bd
       -0.068372175 0.06928191 0.03288708 -0.067117356
000030 45 cf d7 bd 92 cb 3b 3c dd 11 3c bd 3f 4a 57 bd
       -0.105375804 0.011462109 -0.045915473 -0.05256104
000040 df 03 24 3e 13 52 c5 3d bc 73 39 be 60 b0 08 3e
       0.16017102 0.09634795 -0.18110555 0.13348532
000050 ee 89 e6 bc c0 ef 5d 3b 9e bf 52 3b fa 42 09 3e
       -0.028141942 0.0033864826 0.003215767 0.13404456
000060 75 0e 20 bd ed b5 34 3d 86 b0 c6 3d dd e6 47 3e
       -0.039076287 0.04411881 0.09701638 0.19521661
000070 8f 70 30 be 7a b8 ab bd dc e1 7a 3d 13 73 14 3e
       -0.17230438 -0.083847955 0.061250553 0.14497022
000080 d7 1c 91 bc 44 8e d3 bc ed 51 af bd 86 2c b0 bc
       -0.017713947 -0.025824673 -0.08560548 -0.021505605
000090 36 ef 94 3d 85 33 06 3e cb 8d c9 bb 5c 19 dd 3d
       0.07272188 0.1310559 -0.0061509362 0.107958525
0000a0 1a db 25 bd fb 64 91 bc 63 26 35 3d e6 dc ca bc
       -0.040492155 -0.017748347 0.04422606 -0.024763536
0000b0 48 ac 27 be 6e 75 7b bd 06 a3 55 be 10 5a c8 bd
       -0.16374314 -0.061391287 -0.2086297 -0.09782803
0000c0 da 10 4c 3d 9d 4d 88 bd f8 ad 3a bd 82 9b a2 bc
       0.04982076 -0.066554286 -0.045576066 -0.019849543
0000d0 f2 19 6d bb 0a 2b c3 3d 6b a5 23 3e 60 9c 7a 3d
       -0.0036178795 0.095296934 0.1598107 0.061184287
0000e0 1a b2 e9 bc 22 ad 0b 3e 59 67 a0 3d 69 dd 7a 3e
       -0.028527308 0.13640264 0.07832212 0.24498524
0000f0 41 1b 58 bd 30 f2 f8 3d f9 2e ac bd c6 96 2c 3d
       -0.052760366 0.121555686 -0.08407397 0.042135976
000100 63 78 f9 3c e5 92 2f 3d 84 79 20 be b8 7b d6 3c
       0.030452913 0.0428647 -0.15671355 0.02618204
000110 2a ee 6a bd 04 00 79 3d ed cd 9c bd 05 f0 86 3d
       -0.057356037 0.06079103 -0.07656465 0.06588749
000120 78 1f e4 3c 8a 8b a9 3d 00 7b 04 bd bf 70 8c bd
       0.027847037 0.08278568 -0.032343864 -0.06857442
000130 d0 12 9c bd 37 59 4e 3d 8e 26 f9 bd 37 4f b0 bd
       -0.07620776 0.05037805 -0.12165557 -0.08608859
000140 57 7f b3 bd da 45 ef bc 95 7d 47 3e c3 4f d5 bd
       -0.087645225 -0.029208113 0.194815 -0.10415604
000150 dd 97 a1 bc 8b af f2 bd 69 35 5a bd 0f 19 bf bb
       -0.019725734 -0.118498884 -0.053273592 -0.0058318446
000160 54 81 9b bd c9 f7 f4 bb 25 e1 9f 3b af 1d bb bd
       -0.07593027 -0.0074758274 0.0048791342 -0.09136521
000170 1d d2 a9 ba 95 37 a2 bd 68 91 86 3b 39 87 1d bd
       -0.0012956295 -0.07920758 0.0041066892 -0.038459036
000180 9c 22 07 3e f2 78 1d bd bd 80 5f be fe b9 20 3e
       0.13196796 -0.03844542 -0.21826454 0.1569595
000190 0c 2c 0a bd ce 62 c9 bd 87 1e b3 3c 69 55 19 bd
       -0.033733413 -0.098332986 0.021865143 -0.03743497
0001a0 25 4d 33 be b7 2c c9 3d a4 f1 97 bd 31 61 ce 3d
       -0.17509897 0.09822982 -0.07419136 0.100771315
0001b0 3d 06 d2 3b 33 b3 ab 3d 13 e7 06 3c 31 c3 5e 3d
       0.006409435 0.08383789 0.008233803 0.054385368
0001c0 a3 84 8f 3d 5c ed 3e 3d 8f c5 1d be 50 b1 27 3a
       0.0700772 0.046613082 -0.15407394 0.0006396966
0001d0 fd ca de 3c 9a c8 1c 3d c7 bf 50 bc 24 20 e9 bc
       0.027196402 0.038277246 -0.012741036 -0.028457709
0001e0 32 2a 03 3e ee 3c 68 bd d3 4d cd bd e8 bc b9 bd
       0.12809065 -0.056698732 -0.100246094 -0.09069234
0001f0 ec 09 d7 3c d7 45 a4 bd 12 5f 0b be 72 9b 40 bb
       0.026249848 -0.080211334 -0.13610485 -0.0029389528
000200 bb 7c 15 bc c9 b6 44 be f1 92 f8 3d ec cb 99 bd
       -0.009123976 -0.19210352 0.12137402 -0.07509598
000210 7d d6 31 3c 4e 28 b9 3c 07 62 75 3c 75 81 c8 3d
       0.010854361 0.022602227 0.014976985 0.09790317
000220 47 d9 f2 3d 26 a9 de 3c a2 28 52 bd 23 67 cd 3b
       0.118578486 0.027180266 -0.05130828 0.0062683984
000230 6a 09 8e bd 9f 31 2b bd 17 91 05 3e c6 28 86 bd
       -0.06935389 -0.04179537 0.13043629 -0.06550746
000240 f7 42 c2 3d bb 9f 15 3d ff 21 60 3d b6 3b f4 bd
       0.09485429 0.036529284 0.05471992 -0.119254515
000250 0f b7 d5 bb f9 06 8d 3e b3 d7 96 bd a1 ba eb bd
       -0.0065220664 0.27544382 -0.0736536 -0.11510206
000260 51 0a 4e bd 14 81 55 bc af d4 54 3d f6 99 86 bb
       -0.050302807 -0.013031263 0.051960643 -0.004107709
000270 0d fc 6c 3e 54 90 f5 bb 0e ea 92 bd 70 3e 25 be
       0.23143025 -0.007494012 -0.07173549 -0.161371
000280 76 40 e8 3c 52 6a 14 be 17 4c 72 3d 69 dc 0c be
       0.02835105 -0.14493683 0.059154596 -0.13755955
000290 47 9f ef 3c 7e 0f ef ba 88 92 d7 3d 6d ae 4c bd
       0.029250754 -0.001823887 0.105259955 -0.049971033
0002a0 2c a4 91 bd ba e1 99 bc 78 66 25 3e 70 fc e6 3d
       -0.071113914 -0.018784393 0.1615237 0.112786174
0002b0 eb bd 9c bd 99 1d 73 bd 57 3c 31 3a 46 ef 45 bd
       -0.076534115 -0.0593544 0.00067610055 -0.048323892
0002c0 a5 79 2c 3d f2 9a d4 3a a5 b8 d2 3d 3c e1 a2 bd
       0.042108197 0.0016220494 0.102891244 -0.07953116
0002d0 3a cc 5f bd 9b 6b 72 bc 32 dc 88 3d 57 d3 b2 bd
       -0.054638125 -0.014796163 0.06682624 -0.08731716
0002e0 71 43 bc bd 39 69 c1 bd 3e 50 87 3d a7 85 88 3d
       -0.09192551 -0.09443898 0.06607102 0.06666117
0002f0 b5 c5 63 3d d2 92 57 bc e8 39 22 be 54 c7 9f bc
       0.05560847 -0.013157563 -0.15842402 -0.019504227
000300 ea 3d 10 bb 3d 98 58 bd 4c eb 43 3e dc e7 0a be
       -0.002200956 -0.05287956 0.19132727 -0.1356501
000310 1e 2c 2b be 23 b3 66 3b 9a 24 57 3d da 0e 07 3e
       -0.16716048 0.0035201989 0.05252514 0.13189259
000320 d3 22 c4 3d 0e 18 e4 3d cb 1e 26 3e 0d 37 f5 3d
       0.09576955 0.111374006 0.16222684 0.11973391
000330 71 28 e5 bd fd 0a 00 3e 37 44 b9 3d 8a 71 29 be
       -0.11189354 0.12504192 0.09046214 -0.16547218
000340 b5 2c 57 3d f8 6a 43 3d 3c af ca bc ac 49 3d be
       0.05253287 0.047709435 -0.024741761 -0.18485135
000350 77 48 bf bd f7 3a 2e be c1 c4 6d bd 18 f8 d9 3c
       -0.093399934 -0.17014681 -0.058048967 0.026607558
000360 c9 b2 be bd b6 7d 9f 3d 84 1f 30 be 2b cc 2a ba
       -0.09311444 0.07787649 -0.17199522 -0.0006515409
000370 5d 3a eb 3d ed 9b 5d bc 91 57 ca 3d b4 15 fc 3d
       0.11485741 -0.013525945 0.09879983 0.12308827
000380 b3 6c a0 3c 70 85 d1 bd c0 6c d3 bc e2 b2 63 bc
       0.019583082 -0.10230529 -0.025808692 -0.013897629
000390 0b b4 f4 3c 15 df ec bd 9e a6 0f be 96 95 0e 3c
       0.029871007 -0.11565987 -0.14028403 0.008702656
0003a0 bc 15 20 bd be 6f 73 3c a2 81 3b 3e 20 5c 3c be
       -0.039083228 0.014858184 0.1831117 -0.18394518
0003b0 99 a9 5b 3d 51 2a f0 bd 7e d5 fa 3d b2 a2 42 3d
       0.053628538 -0.11726821 0.12247752 0.04751844
0003c0 d7 ca 33 3c 4a 95 7f bd e2 35 0c bd c0 f2 00 bb
       0.010973654 -0.062398233 -0.034231074 -0.001967594
0003d0 50 ec ad 3b 05 7b ef 3d 34 27 9f bd 3d 6f 3c 3c
       0.0053077117 0.11693386 -0.07771149 0.011501131
0003e0 1f f0 28 3d 81 08 12 be d6 3e 80 bd e0 3e 7c 3d
       0.041244622 -0.14261056 -0.06261985 0.0615834
0003f0 05 4f 6e bd 41 22 94 bd d3 e5 6a bb 7c f7 db 3d
       -0.058180828 -0.07233096 -0.0035842552 0.10740563

conv3.bias f4 [128]
000000 66 7e dc bd e3 7f 34 3e 13 fa 13 3e 59 63 c5 bc
       -0.10766296 0.1762691 0.14450864 -0.024095224
000010 94 ce f3 3d 4c 09 4d bd 3d 2e 7c 3d 70 c7 54 3d
       0.11904636 -0.050057694 0.061567534 0.05194801
000020 7b 34 3b 3d b4 62 10 be 46 8d a9 3d 35 62 28 3d
       0.045704346 -0.14100152 0.08278899 0.041109283
000030 6d 43 bc 3d d2 24 4a be 66 27 32 bd 5b 45 f8 3d
       0.09192548 -0.19740608 -0.043494605 0.121226035
000040 dd be 58 3d 06 e6 96 3d 48 9c bb bc 62 56 80 3c
       0.052916396 0.07368092 -0.02290167 0.01566619
000050 84 4c 43 bd 19 91 0a bd 88 5c 65 bd 4c b8 d1 3b
       -0.047680393 -0.033829782 -0.055996448 0.0064001437
000060 13 ce d6 bd 03 45 9e bd a4 4e d9 bc 22 ae 01 bd
       -0.10488524 -0.07728007 -0.026526757 -0.031660207
000070 f3 4d 2f 3c f0 0b eb 3a 9d ba a1 3a 3b cb 16 bd
       0.010699737 0.0017932635 0.001233894 -0.03681491
000080 80 f1 96 bd 6b 3c 4d bc 19 8f 0b bd 0f 44 91 bd
       -0.07370281 -0.012526612 -0.034072015 -0.07093059
000090 b6 7b da 3d 82 31 d7 bd 51 95 86 bd a6 c6 e3 3d
       0.10668127 -0.1050749 -0.065714486 0.111218736
0000a0 23 c0 db 3d 7b d4 7d bd 00 28 a1 3d 0a fb 34 bd
       0.107300065 -0.061970215 0.078689575 -0.044184722
0000b0 58 d0 19 3e 00 8e 0a be a6 a3 32 be 25 92 7b 3c
       0.15020883 -0.13530731 -0.1744524 0.015354668
0000c0 53 0a 66 3c 0c 27 d7 bb 20 f6 6d 3c 74 e1 b7 3d
       0.014040547 -0.006565934 0.014524013 0.08978549
0000d0 ea 87 e6 bd c3 a7 9e bd c7 45 4a 3d d4 f4 ae bd
       -0.11256392 -0.07746842 0.04938295 -0.08542791
0000e0 4e ce 96 bb 0f c7 f8 bc aa 3e 9d bd 4a 95 b6 bd
       -0.00460223 -0.030368356 -0.07677968 -0.089151934
0000f0 36 8c 7d 3c 59 66 5d 3d 6e bd 43 3d 1c 98 b2 3d
       0.015475323 0.054052684 0.047788076 0.08720419
000100 e1 07 ca bd 72 ab 9e 3d 6b 14 24 3e 6d 0d dc 3d
       -0.09864784 0.07747544 0.16023414 0.10744748
000110 5f c9 6a bc 48 18 72 3d 3e 97 e3 3d 56 1a c1 bd
       -0.014330237 0.059105188 0.111128315 -0.09428851
000120 c4 a1 7a 3c e8 1d 65 3d d7 d3 4b 3d 59 06 bb bc
       0.015297357 0.055936724 0.049762573 -0.022830175
000130 6d 08 e5 3d a9 9f 34 bd d9 ee d8 bc 9f 54 0d be
       0.11183248 -0.044097576 -0.026481079 -0.13801812
000140 d1 11 05 3e 78 1a e0 3d 62 cc 94 be db 78 50 3e
       0.12995078 0.109425485 -0.29062182 0.20358603
000150 56 f8 86 bd 1f c4 8a be 3f dc 2d bd 43 74 90 bd
       -0.06590335 -0.27102754 -0.04244637 -0.07053425
000160 26 e5 96 3d 37 e2 cb bb a5 20 5a 3e 4d 61 67 3e
       0.07367925 -0.0062220353 0.21301515 0.22595711
000170 98 2e a6 bd 29 f1 b4 3d 0e 9d 5c 3d 5b 89 97 bd
       -0.08114356 0.0883506 0.053860717 -0.07399245
000180 28 03 17 bc 90 5c 15 3e 1f 77 4c bd 25 50 57 3d
       -0.009217061 0.14586091 -0.04991829 0.052566666
000190 84 53 4a bd f5 da 50 be 7e ad ca 3c f4 54 2a be
       -0.049396053 -0.20396025 0.02474093 -0.1663397
0001a0 18 cd 35 3d 53 91 26 bd 84 6e a9 bd 5b 54 3a bd
       0.044385046 -0.040665936 -0.08273032 -0.045490604
0001b0 07 02 da bd d5 7c 3e 3e a0 54 02 3e 58 cf 1e bd
       -0.10644918 0.18602307 0.12727594 -0.038771957
0001c0 79 61 e3 bc 72 0d 45 bc bd 73 30 3d eb 96 09 be
       -0.02775644 -0.012027131 0.043079127 -0.13436477
0001d0 ba ea 96 3d d6 3d 30 3d 1c de f0 3d 60 06 f4 3c
       0.07368989 0.04302772 0.11761114 0.029788196
0001e0 ec 54 40 bd 3f c2 a5 3c d4 bd ce 3d ef 4c 97 bc
       -0.046955988 0.020234225 0.100948006 -0.018469302
0001f0 79 61 96 bd ea 41 38 3e a9 32 0d be e1 2e 95 3d
       -0.0734281 0.17993894 -0.13788857 0.07284332

conv4.weight f4 [32, 128, 3, 3]
000000 f2 41 87 3d 26 81 24 3d 54 8a af bd f0 03 db bc
       0.06604375 0.040162228 -0.08571306 -0.026735276
000010 a3 90 df bb 62 bf 35 3c 6a f8 a8 3d 32 7e ea 3d
       -0.006822662 0.0110929925 0.08250506 0.11449851
000020 08 84 e5 3d 16 86 0f 3e 10 5c 35 3c a6 60 4d be
       0.112068236 0.14015993 0.011069313 -0.200564
000030 6f d2 01 be 97 22 be bd cb 34 32 b9 81 d1 03 bc
       -0.1267793 -0.09283941 -0.0001699507 -0.008045555
000040 47 6d 8b bc 77 1e ae bd 58 d1 0a 3d f2 44 87 3e
       -0.017019881 -0.085019045 0.033891052 0.2641979
000050 57 9e 09 3d 40 fa 09 3d bc f1 02 bd 5f 73 27 bd
       0.03359827 0.033685923 -0.031968817 -0.04088151
000060 de 31 ad bd 34 0f 0c 3e 51 7a f6 3d 86 f2 83 bd
       -0.08456777 0.13677675 0.12035049 -0.06442742
000070 e3 41 99 3d ad ed db 3d 71 b1 8b be 00 0c 84 3d
       0.0748327 0.107386924 -0.27283815 0.06447601
000080 a2 56 a3 bd 0f 0c a7 bd 3f ce 69 bd 83 01 15 3c
       -0.07975508 -0.08156597 -0.057081457 0.009094599
000090 d4 6e 39 bd fd 29 03 3d 43 84 36 bc e4 69 c1 3d
       -0.04527171 0.032022465 -0.011139932 0.09444025
0000a0 a7 13 1e 3d 0f 14 60 3d 42 b7 da 3d b9 c8 6b 3c
       0.03859296 0.05470663 0.10679485 0.014391118
0000b0 de e2 b6 bd 26 77 0a be 89 5c 9a 3d 01 67 43 bc
       -0.0892999 -0.13522014 0.07537181 -0.0119264135
0000c0 da b3 ac bb 0b 71 8e 3d 10 3b 24 be c0 1a e2 bd
       -0.0052704634 0.06955155 -0.16038156 -0.110402584
0000d0 3d fc 45 bd eb b6 8c 3e 9d ca a7 3d 84 ea 7f bd
       -0.048336256 0.27483305 0.08192942 -0.06247951
0000e0 4d b1 fc bc a2 51 dc 3b e9 69 56 3d 94 b2 08 3e
       -0.030846262 0.0067235986 0.052347098 0.13349372
0000f0 0d fa 04 3b 6f 81 d0 bd 50 de c2 bd 20 45 1a 3e
       0.0020290643 -0.101809375 -0.09515059 0.15065432
000100 72 d1 50 3d 82 6e c6 bd 11 fe 2d 3d 86 de c4 bc
       0.050980993 -0.096890464 0.042478625 -0.024031889
000110 fd b5 b5 bd 7f a6 f6 3d 4d 6b 3f 3d 4f 0e b7 bc
       -0.08872602 0.12043475 0.04673319 -0.02234569
000120 ad 5e 85 bd 16 04 30 3d 8a 95 ed 3d 24 4e 61 bd
       -0.065121986 0.042972647 0.11600788 -0.05500616
000130 c4 fb 59 bc bd da a2 3d 9e 97 a3 bb be f5 4d 3b
       -0.0133046545 0.07951877 -0.0049924394 0.0031426991
000140 b6 97 df bb 7b 9e 31 3d 99 13 41 3d 6f 63 aa bd
       -0.0068235053 0.04336403 0.04713783 -0.08319747
000150 57 5a 88 3d e8 be 48 bd 7c d5 8f 3c 3d 79 47 be
       0.06657856 -0.049010187 0.017557852 -0.19479842
000160 5b 99 db 3d f4 68 20 bc 3e 8b a1 3d 0a 7a 7b 3d
       0.107226096 -0.009790648 0.078878865 0.061395682
000170 c5 b7 0b 3c e2 6f 90 3c 3c ce 43 bd 1c 80 ce bd
       0.008527701 0.017631475 -0.047804102 -0.10083029
000180 65 0f 39 3e 07 cd 98 bd 6b 16 4f be d4 bb 40 bd
       0.18072279 -0.07460981 -0.20223396 -0.047054127
000190 3d f2 e6 bd 17 bd 07 3d 4c 55 7b bd 83 68 85 3b
       -0.11276672 0.033139315 -0.061360642 0.0040712967
0001a0 4f ec 1a bc c1 d9 f3 3d 63 73 10 3e 54 f5 fe 3d
       -0.009455754 0.11906768 0.14106517 0.124491364
0001b0 4b e1 38 3b ad 76 0c 3c 52 4e ce 3d 0a 90 64 3e
       0.0028210457 0.008573216 0.10073532 0.22320572
0001c0 5b 1b 53 be a3 e5 f3 bc 30 08 97 be 1a ca 82 bd
       -0.20615904 -0.029772585 -0.29498434 -0.06386204
0001d0 d4 c2 39 bd 0d da ee bc 31 b4 19 3e 6a 2e 4f bc
       -0.04535182 -0.02915671 0.15010144 -0.012645343
0001e0 80 39 d2 3d 2b 59 08 be c7 34 ad 3d a5 02 82 bd
       0.102648735 -0.13315265 0.08457332 -0.06348161
0001f0 8c 18 e7 bd 64 91 d3 3c 09 1c 4c 3e f8 2b 73 3e
       -0.11283979 0.025826164 0.1993257 0.23747241
000200 c6 84 ee 3c fc 22 b9 3d f0 07 be 3c 70 7b 41 bc
       0.029116046 0.09039876 0.023197144 -0.011809215
000210 fe 96 67 bd d4 9d d0 bc 84 e5 18 39 6a 8f b5 bc
       -0.05654048 -0.025465883 0.00014581351 -0.022163112
000220 fa 0a 00 3e 8c 2f 9d 3d 78 a5 a9 3d de 05 f5 bd
       0.12504187 0.076750845 0.08283514 -0.1196401
000230 ea 14 26 3d 26 7c 16 3e b2 23 36 3c e8 3d e2 3c
       0.04054729 0.14695796 0.011116909 0.02761741
000240 6d bc b9 3c db c3 d9 3d 82 1f 0d bd d9 d1 6e 3e
       0.022672856 0.106330596 -0.034453876 0.23322238
000250 5b d2 f1 3d 27 f6 af bc c9 49 95 3c 74 a6 25 be
       0.118077 -0.02147968 0.01822366 -0.16176778
000260 ee 84 5d bd a2 d5 a0 3d 14 73 d8 3c 2c 2b e5 bd
       -0.05408185 0.07853247 0.026422061 -0.11189875
000270 60 04 cc 3d 1a 9e c3 3d a6 f8 77 3d 6d d5 5f 3d
       0.09961772 0.0955164 0.060539864 0.054646898
000280 67 af 48 3e 02 94 b9 3d 33 4b c2 3d 2b c2 b8 3c
       0.1959816 0.090614334 0.09486999 0.022553524
000290 cd e3 80 bc 17 f4 20 be bd 49 e5 bd 30 9d e4 bd
       -0.015733624 -0.15718113 -0.11195705 -0.11162794
0002a0 49 d1 a4 3d 08 53 bf bd 71 d4 19 bd 78 8b 14 3c
       0.080477305 -0.09342009 -0.037556116 0.009066455
0002b0 1a 63 d1 3d ac ed be 3a 11 b0 a9 bd 1d e6 3f 3e
       0.1022398 0.0014566681 -0.08285535 0.18740125
0002c0 d2 89 0b 3e 1c f2 30 be 03 0a 16 be e9 07 c9 bd
       0.13626793 -0.17279857 -0.14652257 -0.09815962
0002d0 68 23 2e bc 19 30 96 bd 3b fe e6 3d d4 dc 17 3e
       -0.010628559 -0.07333393 0.11278959 0.14830333
0002e0 39 f1 84 3d 18 7e e7 bd 29 31 0d bc 35 1d bb bd
       0.06491322 -0.11303347 -0.008617678 -0.0913643
0002f0 dc da ef bd 81 86 95 3d c8 83 1a be b9 61 a5 bd
       -0.11711666 0.07301045 -0.15089333 -0.0807528
000300 b0 a2 33 3e 3a ac 0e bd 22 a0 c0 3d d6 03 bd bd
       0.17542529 -0.034832217 0.09405543 -0.09229247
000310 c3 99 dd bc 7c 3d c3 3d 94 1a a4 bc 05 35 2a 3d
       -0.027050858 0.095332116 -0.020032205 0.04155447
000320 82 73 92 3d d3 21 ff 3c 06 a3 b6 bd 08 e7 76 3c
       0.071509376 0.031144058 -0.08917813 0.015069731
000330 c3 92 be bd 25 94 20 3e 9b 11 10 bd 59 84 a0 bc
       -0.09305336 0.15681513 -0.03517304 -0.019594358
000340 7a a1 4f 3e 18 98 39 be b0 fd f5 bc 28 00 54 3e
       0.20276442 -0.18124425 -0.030028194 0.20703185
000350 22 1a 88 bb 3a 3b 2b bc a4 35 b5 3d f9 88 3a 3e
       -0.004153506 -0.010451132 0.08848122 0.18216313
000360 60 da 98 bd 81 1f 13 3d ac 45 c4 bb e0 47 50 3e
       -0.07463527 0.035918716 -0.005989751 0.20339918
000370 b0 aa 63 3e bc ef a1 bd 1e f5 02 be 0c 9c 39 bd
       0.22233081 -0.07907054 -0.12788817 -0.045314834
000380 63 91 b3 bd 18 3b 60 bd 4e 80 98 3d f5 03 e3 bb
       -0.08767965 -0.054743856 0.07446347 -0.006927962
000390 ed 33 3a 3e 0e 2f c6 bb d1 d1 11 be d1 b9 d4 bd
       0.1818387 -0.00604809 -0.14240195 -0.10387004
0003a0 80 bb 43 be 12 d3 4a 3e 94 a6 e2 3d 0e c7 06 bd
       -0.19114494 0.1980708 0.110669285 -0.032904677
0003b0 22 9b 75 3e df 52 4b be 2f 6f 0a bc ca ea d7 bc
       0.2398496 -0.19855832 -0.00844936 -0.026357073
0003c0 c0 ed 9b 3d a6 6a 16 bd 57 86 00 3e d8 ba 89 3c
       0.076137066 -0.0367228 0.12551247 0.016812727
0003d0 06 9f a8 bb 37 ed 45 3c e3 b1 c7 3b f5 76 19 be
       -0.00514591 0.012080482 0.006094204 -0.14986785
0003e0 ae ad db 3b 7c 31 07 3c f3 aa 7c 3c 76 6f b3 3d
       0.006704054 0.008251544 0.015421617 0.08761494
0003f0 d2 e8 fd ba a7 cb 1b 3b 6f 9b aa 3c 1f 50 3b 3d
       -0.0019371754 0.002377251 0.02082607 0.045730706

conv4.bias f4 [32]
000000 19 f8 01 3e 9e 32 cd 3c 3b be ad bc df 6d 0a bd
       0.12692298 0.02504855 -0.021208873 -0.033796187
000010 5b b9 d0 bd 2e 95 17 bd 16 26 89 3d c5 e8 58 be
       -0.10191604 -0.037007503 0.066967174 -0.21182545
000020 36 1b 7e 3e ab 33 39 3d df c7 da bd 9a e9 f5 3d
       0.24815068 0.04521529 -0.10682654 0.120074466
000030 1d 3d 3c 3e 6f 9b fa 3d d1 2c 38 3b 04 69 23 3e
       0.18382688 0.12236678 0.0028102885 0.15958029
000040 ce 80 35 3e b8 04 32 bd 4b 85 28 3d 68 cc 0b 3d
       0.17724916 -0.04346153 0.041142743 0.034130484
000050 21 ac 1a 3c 8d dc bf 3d 6b 7a be bd a0 cc 79 bd
       0.009440453 0.093682386 -0.09300693 -0.06098616
000060 f1 c4 27 bd 24 24 80 bd 5c c4 0e 3e cd 31 93 bd
       -0.040959302 -0.06256893 0.13942093 -0.07187233
000070 22 ab b0 bc 66 61 a7 3d 1b d7 d7 bd 91 ff a0 ba
       -0.021565977 0.08172874 -0.10539075 -0.0012283196

conv5.weight f4 [8, 32, 3, 3]
000000 c3 62 47 3d e8 fd 06 bc e3 54 10 3d 7e 17 03 bd
       0.04867817 -0.008239247 0.035237204 -0.032004826
000010 06 f7 f5 bc 4c 72 dc bc ce b7 05 be 6d 3d 20 3c
       -0.030025017 -0.02690997 -0.13058397 0.00978027
000020 33 df 36 bb 11 61 01 3e 30 6d ba bb 20 44 8c bd
       -0.0027904033 0.12634684 -0.0056892857 -0.06848931
000030 64 7c 58 bd e3 35 86 3d e0 12 25 3d 23 fc 86 bd
       -0.052853003 0.06553247 0.040301204 -0.0659106
000040 3d 96 2a 3e 7f f9 9a 3d 13 b1 19 bd a4 90 17 3d
       0.16658874 0.07567119 -0.037522387 0.037003174
000050 05 96 f4 3d b4 66 1c 3e 9c 61 4e 3b 9f d1 2e 3e
       0.119426765 0.15273553 0.0031491285 0.17072152
000060 c0 09 b0 3d 0e 2f 73 3a a2 56 33 be ed 5c a7 3d
       0.0859561 0.0009276726 -0.17513517 0.08172021
000070 bd 1d 40 bd 23 c9 5a bd 34 f0 46 be 0e 30 37 3d
       -0.04690336 -0.053414475 -0.19427568 0.044723563
000080 ff 52 22 3b cc 1d e9 bc 98 22 17 be e7 bc e5 bc
       0.0024768708 -0.028456591 -0.1475929 -0.028044177
000090 4e 09 8a 3d 5e 7d 92 bc d2 a6 4b 3d a0 98 a0 bd
       0.06740056 -0.017882045 0.04971964 -0.07841611
0000a0 ba 58 09 be ed 8b e6 bd 59 bd 06 3e 9e 3a 27 3d
       -0.13412753 -0.112571575 0.13158168 0.040827386
0000b0 ee 13 a2 bc d4 19 81 3d 1a 50 c6 bd d1 68 c8 bc
       -0.019784894 0.063037544 -0.09683247 -0.024464043
0000c0 ad 76 7f be 59 2f d7 bd 18 1c bf 3d 2e 82 fb bd
       -0.24947615 -0.10507078 0.0933153 -0.12280689
0000d0 86 4f 84 3d bb 9b 07 bd a6 57 5e bd ee 2a 45 3d
       0.064604804 -0.0331075 -0.054282807 0.048136644
0000e0 4f b1 43 39 16 fc c9 bc 2a 11 02 3d ff 9d 27 3d
       0.00018662702 -0.024656337 0.03175465 0.04092216
0000f0 f8 f3 05 be dc e0 89 bd 10 df 84 3d 1e 35 3a be
       -0.13081348 -0.06732342 0.06487858 -0.18184325
000100 73 86 9f bd 3f 6e f7 3c 33 04 ff bd ad 2e e0 3c
       -0.07789316 0.030203937 -0.12451973 0.027366007
000110 f2 66 e5 bd 79 86 f6 bc 32 21 7a be a3 e2 07 3e
       -0.11201276 -0.030093418 -0.24426726 0.13270049
000120 d1 a5 8f bd 47 5a 1b be 70 7f 13 be 23 02 16 be
       -0.07014049 -0.15171157 -0.14404082 -0.14649253
000130 4c 8f 1a bb dd 7c 9e bc 0b a7 fe bd d7 d5 f7 3d
       -0.0023583947 -0.019346649 -0.12434205 0.121013336
000140 a8 e0 b1 bd ec d3 94 3d f5 29 32 3c b4 72 6c bd
       -0.08685428 0.072669834 0.010874261 -0.057726577
000150 0d 4e c0 3d ac cc e1 bd 1e 24 66 3c a6 7e 82 bc
       0.09389887 -0.11025366 0.014046697 -0.015929531
000160 aa 92 6b bd 2d 0d c4 bd 86 5a 13 be c7 ef 78 3d
       -0.057512917 -0.095728256 -0.1439 0.060775544
000170 c7 54 92 bd 44 11 b5 39 c3 35 1e be 1a d4 c3 bc
       -0.07145076 0.00034535874 -0.15450196 -0.023904849
000180 fe 1c de 3c bb 2c 15 bd 62 66 08 3d de 38 19 3c
       0.027113434 -0.03641961 0.033300765 0.009351937
000190 9d c5 8b bc 0a 74 c9 bc 08 37 9f 3c 4f e5 c6 bd
       -0.017062003 -0.024591465 0.01943542 -0.09711706
0001a0 65 4a 8a 3d e5 df a2 bc 7d 52 02 3e 36 af 1e 3d
       0.06752471 -0.019882152 0.1272678 0.038741313
0001b0 b5 fe cc bd 60 56 82 be 80 d0 ec 3d ab 27 41 3e
       -0.10009519 -0.25456524 0.11563206 0.18862788
0001c0 cc b8 1e bd ce 38 1b bd 95 05 c0 bd 3a 30 17 3e
       -0.038750455 -0.03789597 -0.09376065 0.1476449
0001d0 d4 36 d4 3d ec 97 7b bd 77 f7 02 3d 2a 15 02 be
       0.1036202 -0.06142418 0.031974282 -0.12703386
0001e0 8b f4 93 3d 20 4b 61 bd 69 e3 b6 3c 4a 4e 4b 3e
       0.07224377 -0.055003285 0.022325234 0.19854084
0001f0 a2 fa df 3d 0f ff b3 bd 0f 6b 31 be 5a c3 2a 3a
       0.10936476 -0.08788883 -0.17325996 0.0006514095
000200 4b 2e 82 3d 58 53 12 3d 16 f6 d9 3c 70 24 70 3e
       0.06356486 0.035724014 0.0266066 0.234514
000210 bb 63 c8 3d bf 80 0a be ff ee e1 bc 74 4c ee 3d
       0.09784647 -0.13525675 -0.027579783 0.11635676
000220 5d c3 c2 bc c5 75 e5 3c 7c 0e bd 3d fa 3a 9e 3d
       -0.023774797 0.028010258 0.09231278 0.07726093
000230 2f a7 2e be 3f 40 32 bd 3a 30 b8 bc ba b5 f3 bc
       -0.17055963 -0.0435183 -0.022483934 -0.02974974
000240 66 56 1b 3e d4 9c aa 3d 35 bc 43 3c eb 0c 7c 3d
       0.15169677 0.08330694 0.0119467275 0.061535757
000250 e1 f1 bd bc e9 de de bc 3e 05 7d bd 38 a1 15 3e
       -0.023186626 -0.027205901 -0.061772577 0.14612281
000260 2e de ea bd 2c 5a b1 bd 1a 34 ed 3b 72 fa 0a bd
       -0.11468159 -0.08659777 0.007238877 -0.03393025
000270 46 e0 37 be f9 1b a9 bc 56 fb de 3c da 6f 09 3e
       -0.17956647 -0.020643221 0.027219456 0.13421574
000280 e0 54 78 bd bc 6c fa 3d c4 e0 59 3c 7a 77 00 3e
       -0.060627818 0.12227771 0.013298217 0.12545577
000290 fe 2e 43 3e 85 25 7b 3d 41 d7 cc bd c3 5a cf bd
       0.19060895 0.06131508 -0.10001994 -0.10124733
0002a0 41 5c d4 3d 2f 2f ce bd 21 60 bf 3d b1 f0 88 3e
       0.103691585 -0.10067593 0.09344507 0.26746133
0002b0 21 3a 3c ba 99 6c 07 3e 8e c1 af 3d 04 7d 45 be
       -0.0007180293 0.1322502 0.085818395 -0.19285971
0002c0 53 df f0 3c 04 f0 08 3e cc 49 c2 3c 9d cd 8a 3e
       0.029403364 0.13372809 0.02371683 0.27109995
0002d0 32 e9 c5 3b 21 3d 45 bd 32 c4 24 be 8d 97 fd 3d
       0.006039762 -0.048154 -0.16090468 0.12382422
0002e0 b5 e2 1c 3d c0 e0 02 3e c7 2f 4e 3d 99 48 84 bd
       0.038302142 0.12781048 0.050338533 -0.064591594
0002f0 fe 11 d2 bd be 8e 08 3e c0 7c 08 3d 35 e3 76 3c
       -0.10257338 0.13335702 0.033322096 0.015068819
000300 ae 94 43 bd 61 f9 17 3e a5 50 aa bc 98 cd 4b 3d
       -0.047749214 0.14841224 -0.020790407 0.049756616
000310 3c b9 75 be ce 38 3a 3c 09 b1 1e 3e d1 d8 53 bd
       -0.23996443 0.011366082 0.15497221 -0.051720444
000320 ab 07 9a 3c cc 78 97 bd 25 bb c2 bd 22 be 86 3d
       0.018802484 -0.07396087 -0.09508351 0.06579234
000330 fa 43 02 3d fc c0 3b 3d 01 4d 94 3c d3 56 04 3d
       0.03180311 0.04583834 0.018103125 0.032309365
000340 c2 a5 a3 bd c3 be 64 3e 12 f5 91 bd 96 31 41 b9
       -0.079906 0.22338395 -0.071268216 -0.00018424387
000350 30 4f 60 3d 0d 02 cd 3c 40 87 27 bd 9a 98 8d bc
       0.05476302 0.025025392 -0.04090047 -0.01728468
000360 ce ab 54 3d 47 90 cf 3d e3 ce 0f 3d cf 4b d2 3d
       0.05192166 0.101349406 0.035109412 0.102683656
000370 c9 e2 4e 3e ee db 36 be aa ab 19 ba a1 62 8b 3d
       0.20203699 -0.17857334 -0.0005862067 0.06805921
000380 fc ae 50 bd 91 4d 34 bd e9 43 fd 3d b1 be 07 3e
       -0.050948128 -0.044019286 0.123664685 0.13256337
000390 cb ed cb bd 32 01 b8 bd 25 ea 1e bd ec 46 d1 3d
       -0.09957465 -0.08984603 -0.038797516 0.102186054
0003a0 ec d1 00 bc 79 f3 90 3e f9 fa a6 bd 96 cd 8e bd
       -0.007862549 0.28310755 -0.08153338 -0.06972806
0003b0 37 76 30 3e 60 84 72 bd 5d cc a4 bc 90 0e 5e 3e
       0.17232595 -0.059208274 -0.02011698 0.21685243
0003c0 dd a2 a6 3c 31 e0 80 bc 35 13 18 be a6 26 33 bc
       0.020341331 -0.015731903 -0.14851077 -0.0109345075
0003d0 ad e9 b1 3d d9 9e c5 bd e0 c3 83 bc f2 91 d0 3d
       0.08687148 -0.096494384 -0.016084611 0.10184087
0003e0 ef f3 93 3d 2e 2c 14 bc 28 25 4c 3d 7f d6 9b bd
       0.07224261 -0.009043736 0.049840122 -0.07609271
0003f0 5d 9e 07 3e c8 79 9f bc 8d 6e dc 3c d0 9e 6e bc
       0.13244005 -0.01946725 0.026908183 -0.014564231

conv5.bias f4 [8]
000000 28 f1 09 bd ee e4 ff bd 0d 71 ac bd 76 90 9e 3c
       -0.03367725 -0.12494837 -0.0842 0.019355994
000010 8e 59 a5 be dc df b2 bc 91 64 8f 3d c3 63 9e bc
       -0.32294887 -0.02183526 0.070016034 -0.01933468

conv6.weight f4 [2, 8, 3, 3]
000000 80 e1 b6 bc 2d 3b 11 3b ce 51 26 be 95 34 d8 bd
       -0.022324324 0.0022160516 -0.16242144 -0.10556904
000010 91 97 59 bd 21 9a 5e bd 75 40 f6 bd fc 7b 9c ba
       -0.05312306 -0.054346208 -0.12024013 -0.0011938806
000020 21 3e 1c 3e e6 1a 15 be b0 86 60 3b a0 c6 43 3e
       0.15258075 -0.14561042 0.0034259968 0.19118738
000030 72 2d 3b 3e f1 55 3e 3e a0 a8 fc bd df f5 f3 3d
       0.18279055 0.18587472 -0.1233685 0.119121306
000040 cf 53 6c be 45 13 a4 3d c2 68 83 3d 5f 99 8d bc
       -0.23078845 0.08011488 0.06416465 -0.017285047
000050 b6 11 e2 3d cf de b6 3c 31 bb 02 3e d8 fc 8c 3d
       0.11038534 0.02232304 0.1276672 0.068841636
000060 2c ad 82 bc 90 4c 5f bd 1b aa 4a bd de fb 0d 3c
       -0.015951715 -0.054516375 -0.04947863 0.008666007
000070 0b 69 55 bd 22 7a 31 be c2 8d 17 3e 1a 5e e3 3d
       -0.05210213 -0.17331746 0.1480017 0.11101933
000080 c7 3d 7a 3e 00 56 0d bb 78 03 04 3e b6 cb b2 3d
       0.24437629 -0.0021566153 0.12891948 0.08730261
000090 15 a6 42 be 57 da 78 bc 52 35 47 3d 4f 75 56 3d
       -0.19008668 -0.015188775 0.048634835 0.052357968
0000a0 f0 ac f6 3d 50 22 05 3e e7 83 99 3a 57 7e 84 bd
       0.12044704 0.1300137 0.0011712284 -0.0646941
0000b0 0b 4c 6e 3d f2 37 b8 bd dd ad 38 bc 1b a0 32 3e
       0.05817799 -0.08995046 -0.011271921 0.17443888
0000c0 e3 02 54 3c 05 ce 12 3b 5e ea b7 3d 56 8f 87 bd
       0.012940141 0.002240063 0.08980249 -0.06619136
0000d0 06 78 d1 3d 2f ce 66 bd bc 26 f3 bb a2 b6 a9 bd
       0.10227971 -0.056348976 -0.007420389 -0.082867876
0000e0 61 a9 91 bd cf 8d 38 bd 04 bc a0 bc 78 6f 49 bd
       -0.071123846 -0.045057114 -0.019620903 -0.04917857
0000f0 f1 3e 23 be 7b 13 31 bd 3d aa 6f 3d 1b 51 c7 3d
       -0.15941979 -0.04323147 0.05851196 0.097322665
000100 23 e0 27 3e 87 89 9d 3d 5f f7 01 3d d5 ac 61 bc
       0.16394095 0.07692247 0.031730052 -0.0137741165
000110 43 13 9f bd 76 2b 0d 3e 2e d4 b8 3d 9a fb 51 3d
       -0.07767346 0.1378611 0.09024845 0.051265337
000120 2d 53 e9 bb c2 42 76 3d 6c 17 31 be 14 00 97 bd
       -0.007120511 0.06012226 -0.17294091 -0.07373062
000130 83 9b 9a 3d a8 ad 08 bd 73 cc c9 bd 7f d2 37 3e
       0.07549193 -0.033368737 -0.09853449 0.17951392
000140 dd 68 21 3e 82 00 08 3e 10 ef 1c 3c 87 49 48 be
       0.15762658 0.13281444 0.009578481 -0.19559298
000150 66 f3 aa be 3c ab 99 3d 82 90 17 3e 70 bd 65 3d
       -0.33388823 0.075033635 0.14801219 0.056088865
000160 41 3e 0d 3e 43 aa 9d 3d 1c 7f 87 3d d1 c1 03 3c
       0.13793279 0.076984905 0.06616041 0.008041815
000170 49 8d 3b 3e 1c 43 73 3c fa cd 7c 3d c7 d0 c7 3d
       0.18315615 0.014847543 0.061719872 0.09756618
000180 93 ce 6f 3e 57 b2 7d 3d 94 c0 8f 3d 7d 89 4b bd
       0.23418646 0.061937656 0.07019153 -0.049691666
000190 20 be de 3d e8 56 8f 3e d6 32 3e be 2d ef 08 bd
       0.10876107 0.27995992 -0.1857408 -0.03343122
0001a0 db ad 7b 3d fc 3c 4f 3d e0 af 16 be 78 71 9c bd
       0.0614451 0.05059527 -0.14715528 -0.0763883
0001b0 ad e0 0c bd 16 c3 e1 bd cd 5e 3a be ec d6 1c bd
       -0.034393955 -0.11023538 -0.18200226 -0.038290903
0001c0 79 47 ac 3e 80 6a 68 bd 97 96 0b be ad 21 3f be
       0.3364828 -0.05674219 -0.13631664 -0.1866519
0001d0 7e 73 0e 3e 94 75 57 bd c0 0d 05 be 2c f7 e8 3d
       0.13911244 -0.052602366 -0.12993526 0.11375269
0001e0 77 58 03 3e 0e 77 22 3e 27 71 2b 3e f0 e3 38 bc
       0.12826715 0.15865728 0.16742383 -0.011284813
0001f0 78 93 9a bd 79 ba 91 3c 11 18 eb bd cb 6a 0c 3d
       -0.07547659 0.017789112 -0.114792 0.034281533
000200 9f fa 85 3c 08 ff 37 bd c0 49 86 3b 59 5f 00 bd
       0.016354857 -0.04492095 0.004098147 -0.03134093
000210 65 44 8c 3d 4d 7b db 3d ef 07 07 3d d9 74 8b bd
       0.06848983 0.10716877 0.03296655 -0.06809396
000220 e0 35 b4 3d d9 c4 04 3b 4a 7e 2a 3e e7 16 ea 3c
       0.08799338 0.0020258932 0.16649738 0.028575374
000230 71 bc 53 bd 44 46 07 be 83 c5 d2 3d 0b 62 35 3e
       -0.051693384 -0.13210398 0.102915786 0.17713182

conv6.bias f4 [2]
000000 35 8a 18 be 07 aa a4 bc
       -0.14896472 -0.020100607
