model.pt (torch, 867771 bytes, 14 tensors)

conv1.weight f4 [8, 1, 5, 5]
000000 7e 3e 29 bd 82 76 26 3e 1e 68 dd bd 44 85 14 bf
       -0.041319363 0.16256145 -0.108108744 -0.5801585
000010 71 81 d8 bd aa 59 8c 3d 51 01 80 3e 55 d3 18 3e
       -0.10571564 0.068530396 0.25001004 0.14924367
000020 b6 a3 dd be 7c 16 6d be c0 5d 8e 3e bb 5f 9e 3c
       -0.43288964 -0.23153108 0.278059 0.019332757
000030 02 80 09 3e d0 73 1d 3d cf 27 a0 be 53 b8 1b 3e
       0.13427737 0.038440526 -0.31280372 0.15207033
000040 af c6 68 3e 14 87 8a 3e b0 32 4e 3e 50 c4 d7 be
       0.22732042 0.2705618 0.20136523 -0.42141962
000050 e4 2f 6a 3e 19 8d 8a 3d c1 55 81 3e 5f 92 12 3e
       0.22869831 0.067651935 0.25260738 0.14313649
000060 dc 0e 15 3d fa 81 92 be e0 21 76 be d5 21 8a be
       0.036391124 -0.2861479 -0.2403636 -0.26978937
000070 9c 4e 7b be db ea 02 bf 1f 0e 22 be 63 6f 79 be
       -0.24541706 -0.5113961 -0.158257 -0.24358897
000080 bb 19 b5 bd 88 94 87 be be 1b d1 be 6d a6 c7 be
       -0.08842798 -0.26480508 -0.40841478 -0.3899416
000090 54 3a 2b be 97 17 62 be 66 a9 a0 bd f3 19 65 be
       -0.16721469 -0.22079311 -0.0784481 -0.2237318
0000a0 2f 20 ce be b2 eb 76 be 20 9f e3 be d8 60 60 be
       -0.4025893 -0.24113348 -0.4445734 -0.21911943
0000b0 ad 01 a7 be 3c f1 8a be 3e 66 ff bd f1 d9 3e be
       -0.32618466 -0.27137172 -0.12470673 -0.18637826
0000c0 05 72 d1 be 22 73 cd be 40 ca c4 be 7b de 91 be
       -0.40907302 -0.40126902 -0.38435555 -0.28490052
0000d0 57 e7 2d 3d 64 04 53 3d 1e 46 28 3e ca 49 8e be
       0.04245695 0.05151786 0.16432998 -0.27790672
0000e0 54 c3 87 bd 87 f2 b6 3d 8d 16 2c 3e 5f 90 3c 3e
       -0.06629053 0.08932977 0.16805477 0.18414448
0000f0 03 22 ee be db 68 d5 3d 74 dd 23 3d cf 8c 69 3d
       -0.46510324 0.1042039 0.040006116 0.05701905
000100 61 d2 3f 3e 1b 2d bd 3c 8c fa 40 3e 6f 0c 94 3e
       0.18732597 0.023092797 0.18845576 0.28915736
000110 2b 90 23 3d 88 02 91 3d e5 2e eb 3d 9a a2 e6 3d
       0.03993241 0.07080561 0.11483554 0.112614825
000120 ab a3 ac 3d 12 0c 99 3e 00 cd b4 3d 08 6e 85 be
       0.08429655 0.2989202 0.08828163 -0.2606051
000130 71 d1 17 be 64 20 bd bd fd b6 4a be 91 e4 be bd
       -0.1482599 -0.09234694 -0.19796367 -0.09320939
000140 88 5d c0 be 38 f0 d8 be 09 1e 68 be 81 7a aa be
       -0.3757136 -0.42370772 -0.22667708 -0.33296588
000150 6a 89 99 be 1b f8 74 be f4 58 cd bd a1 fa a0 be
       -0.2998765 -0.2392277 -0.10026732 -0.31441215
000160 fb af da bd 3c 58 86 be 0a 6d b0 be 8b ba 35 be
       -0.10678097 -0.26239192 -0.3445819 -0.17746942
000170 ce 61 f0 bd 8c 42 7d be 17 a2 90 be 91 0f ad be
       -0.11737405 -0.24732417 -0.28248665 -0.3380094
000180 7e e8 1b be 6c 0e cc be 9d 7e c5 bd 59 8c 9f be
       -0.15225407 -0.39854753 -0.0964329 -0.31161764
000190 38 a3 2d bd 5d ec 6c be 27 43 c9 be 3f c0 78 be
       -0.042391986 -0.2313704 -0.39309046 -0.24292086
0001a0 b5 67 04 be c7 22 12 be cf 03 05 be 16 37 ba be
       -0.12930186 -0.14271079 -0.12989734 -0.36370152
0001b0 8a ce 9e be a9 37 e7 be 71 f7 a4 be fd a1 d6 be
       -0.31016952 -0.45159653 -0.32220033 -0.41920462
0001c0 12 de ee be a2 6a a3 be 2d 1f 11 be eb 14 47 be
       -0.466538 -0.31917292 -0.14172049 -0.19441573
0001d0 97 dc ae be f1 b3 c2 bd 0d 43 3a be bf 0c b1 be
       -0.34152672 -0.09506977 -0.1818964 -0.34580037
0001e0 30 ca c4 be 1e 74 a8 be 59 6f 63 bd d5 63 bb be
       -0.38435507 -0.3290109 -0.05552611 -0.36599603
0001f0 fa ba b1 be 11 ae 68 be e0 98 6f be 5d d7 94 be
       -0.34712964 -0.22722651 -0.23398161 -0.2907056
000200 a7 b1 a6 be e3 dd 51 be dc 73 d7 be dd 4c e1 be
       -0.32557413 -0.204948 -0.4208058 -0.44003955
000210 32 30 41 be 20 47 fb bd 19 af ac be ff f7 1a be
       -0.18866041 -0.122694254 -0.3372734 -0.15133666
000220 fa 89 2f be 65 2c a9 bd 74 d0 d2 be 03 c7 54 be
       -0.17142478 -0.08260421 -0.41174662 -0.20779042
000230 57 ac db be 2c 68 d1 bd 39 c7 c8 be e3 f9 1d be
       -0.42904922 -0.10224947 -0.39214495 -0.15427355
000240 a3 fe ce be 81 5d d7 be 9b fd ba bd 79 16 3f be
       -0.40428647 -0.42063525 -0.09130403 -0.18660916
000250 a8 19 a9 be c5 d9 ad be 30 3e 2e be cc e5 8b be
       -0.33027387 -0.33955207 -0.1701591 -0.2732376
000260 fe 99 38 3e 4b 10 c1 3e 9d 56 9c be 11 eb a4 be
       0.18027493 0.37707743 -0.3053483 -0.3221059
000270 cc 7c b9 3e 4f 25 c0 3d fd c5 2a 3e 56 e9 d7 3d
       0.36228025 0.09382116 0.16677089 0.10542552
000280 6d 65 80 be 7d 3f 77 3e 7b 7d f5 3e 23 87 b5 3e
       -0.25077382 0.24145313 0.47947297 0.35454664
000290 87 12 13 3e 51 59 7d bd b7 9c ad be 43 56 6a be
       0.14362536 -0.061852757 -0.33908626 -0.22884469
0002a0 b3 e5 af bd b1 41 87 be 9e 44 50 be 73 86 77 be
       -0.085887335 -0.26417306 -0.20338675 -0.24172382
0002b0 3c b4 c6 be 1f 4e 25 be 65 bb 77 be d6 b4 f0 be
       -0.38809383 -0.16143082 -0.24192579 -0.47012967
0002c0 51 11 a2 bd 38 a0 31 bd ca 2b 54 bd 5e 69 99 3d
       -0.07913459 -0.043365687 -0.051799573 0.074908
0002d0 2b d9 75 be 7f 43 8a bc a3 15 83 bd 98 36 a0 bb
       -0.24008624 -0.016877888 -0.06400611 -0.0048893206
0002e0 d1 01 f0 3d 48 05 13 be 70 9b 50 3d fa 70 f7 3d
       0.117190965 -0.14357483 0.050929487 0.120820954
0002f0 40 60 b8 bd e4 e9 9a bd a2 4f 99 3c 35 a2 dc bc
       -0.09002733 -0.07564142 0.01871473 -0.026932815
000300 8e 44 68 3e e7 cc b0 3d 1d 98 96 3d 2d b6 56 3e
       0.22682402 0.08632832 0.07353232 0.20967932
000310 f0 0f e1 3d 2a c6 7f bb 90 98 7c 3e 9d 7a ee be
       0.10989368 -0.0039028027 0.24667573 -0.46577922

conv1.bias f4 [8]
000000 c0 3a 01 bf 81 31 db be af 9e f7 be 4c 63 b9 bd
       -0.5048027 -0.42811206 -0.48363253 -0.090521425
000010 f7 5e e2 be 6f 67 a5 be 49 a8 07 bf b7 57 03 bf
       -0.44213077 -0.32305476 -0.5299116 -0.5130572

conv2.weight f4 [16, 8, 5, 5]
000000 f3 48 65 3e 9b dd 68 3e e9 6b 28 3e 04 fb d1 3d
       0.22391109 0.22740786 0.16447414 0.102529556
000010 4b 1f 30 3d 33 3e 90 3e 1d e7 fb 3d 9e 39 98 3d
       0.042998593 0.28172454 0.12299941 0.074328646
000020 b8 99 28 3d f6 16 f3 3c c7 5b a7 3e 4c 9c eb 3d
       0.041162223 0.029674035 0.32687208 0.11504421
000030 05 6c 04 3e ec f5 2b 3e 8d d3 06 3e 63 78 5f 3e
       0.12931831 0.1679303 0.13166638 0.21823268
000040 4b 7f 90 3e ee f3 59 3e f1 3c 99 3e 29 7d 4f 3e
       0.28222117 0.21284458 0.29929307 0.20262589
000050 77 34 85 3e 20 bd 9d 3e d6 bf 73 3e d0 a8 90 3e
       0.2601659 0.30808353 0.23803648 0.28253794
000060 e6 f5 3d 3e b4 5e 46 3e 88 bb 88 3e 23 39 a5 3e
       0.18550834 0.19372064 0.26705575 0.32270154
000070 be 7b a6 3e 22 53 8a 3e 96 19 2e 3e e7 20 a4 3e
       0.32516283 0.2701655 0.17001948 0.32056352
000080 01 47 ac 3e cb 74 a1 3e 8f 6e 92 3e 8f d6 5a 3e
       0.33647922 0.31534418 0.28599975 0.2137091
000090 d2 a0 5f 3e 6c 08 63 3e db 08 80 3e 03 cb 29 3e
       0.21838692 0.22171181 0.25006756 0.16581349
0000a0 73 21 3b 3e 8a e8 65 3e a2 c3 88 3e 0d 6d 72 3e
       0.18274479 0.22451988 0.26711756 0.23674412
0000b0 f3 38 20 3e 88 6e 73 3e 4c 8c a5 3e ce cf 86 3e
       0.15646724 0.23772633 0.323336 0.26330417
0000c0 61 fd 8d 3e ca 6a 44 3e 24 a1 5f 3e 5b 90 7a 3e
       0.27732375 0.19181362 0.21838814 0.2446913
0000d0 e4 c1 3a 3c b2 aa 85 3e e5 ac 8f 3e 43 6a 64 3d
       0.011398766 0.26106793 0.28061596 0.0557654
0000e0 42 a6 88 3d 3b 66 f8 3d 17 0d 55 3e bf 2c 24 3e
       0.06672336 0.12128874 0.20805775 0.16032694
0000f0 47 74 c8 3d b9 19 ae 3c a2 b2 d4 3d f2 b2 10 3e
       0.09787803 0.0212525 0.10385634 0.14130762
000100 d8 01 1c 3e fd 17 a1 3d 73 b1 d7 3d ec e2 34 3d
       0.15235078 0.078659035 0.10531893 0.044161722
000110 24 ae 18 3e 65 c2 27 3e 1f 39 cb 3d ca 25 51 3e
       0.1491018 0.1638275 0.09923004 0.20424572
000120 f0 34 35 3e 12 f1 72 3e 19 de 40 3e 6f 2e 5c 3e
       0.17695975 0.23724774 0.18834724 0.21502088
000130 a1 fd 92 3e 90 12 6f 3e 78 5c c3 3d 37 b0 55 3e
       0.28709128 0.23346925 0.095391214 0.20868002
000140 35 ce a4 3e 3f 92 83 3e e5 63 9b 3e 87 5d 6d 3e
       0.32188573 0.25697514 0.3034965 0.23180209
000150 f2 5c d8 3d 51 14 82 3e a7 4b 70 3e 84 5e 4e 3e
       0.10564603 0.25406125 0.23466359 0.20153242
000160 e3 cc 43 3e 96 24 a2 3e 0d 17 6a 3e 9e 55 86 3e
       0.19121127 0.31668538 0.22860356 0.26237196
000170 2a 1f 89 3e 91 2c 89 3e 6c 9a 9b 3e 6c d8 94 3e
       0.2678159 0.26791814 0.30391252 0.29071367
000180 39 8e 6e 3e f4 67 82 3e 18 b6 8f 3e 5f fc 48 3e
       0.23296441 0.25469935 0.28068614 0.19627522
000190 16 6b 6d 3e ff c4 8a 3e 7e 1c 3a 3e 35 45 90 3e
       0.23185381 0.2710342 0.18174931 0.281778
0001a0 0e 8e 7d 3e cd 69 6b 3e 5c 6f 78 3e 31 66 eb 3d
       0.24761221 0.22989579 0.2426123 0.11494101
0001b0 55 78 99 3e 96 37 79 3e 18 72 5b 3e 3e f2 00 3e
       0.2997462 0.2433761 0.21430242 0.12592408
0001c0 ba 7c 58 3e 70 7e 90 3e 54 7f ba 3d 14 83 18 3e
       0.2114133 0.28221464 0.09106317 0.14893752
0001d0 67 00 42 3e ca fb 06 3e 9b 8b bf 3d 84 ae fa 3d
       0.18945466 0.13181987 0.093527995 0.122403175
0001e0 34 ec 2c 3e 23 3d 44 3e 55 8c ae 3d 16 2f 42 3e
       0.1688698 0.19163947 0.0852286 0.18963274
0001f0 65 6f 97 3e df 83 85 3e b7 1c 90 3e f3 cd a1 3e
       0.29577175 0.26077172 0.28146908 0.3160244
000200 3f a3 98 3e db 90 74 3e b0 31 89 3e 35 da 82 3e
       0.29812047 0.23883383 0.2679572 0.25557104
000210 84 19 b3 3e 8a 16 81 3e 7c c2 42 3e 41 f0 ac 3e
       0.34980404 0.25212508 0.19019502 0.3377705
000220 65 92 6d 3e ee 57 77 3e 89 22 0b 3e 74 7d 4f 3e
       0.23200376 0.24154636 0.13587393 0.202627
000230 58 ad 8f 3e f4 c5 87 3e 94 ba 9b 3e 33 d9 1a 3e
       0.28061938 0.26518214 0.30415785 0.15121917
000240 50 e1 3e 3e ef 16 aa 3e 26 91 a1 3e 2d 10 b3 3e
       0.18640637 0.33220622 0.31556052 0.3497328
000250 89 a2 99 3e 0b af b7 3e 13 29 5e 3e a0 62 09 3e
       0.30006817 0.35875735 0.21695356 0.13416529
000260 8c 46 2b 3e 3d f1 6c 3e 89 81 33 3e 7d 99 ae 3e
       0.1672613 0.231389 0.17529882 0.34101477
000270 bc 55 45 3e 75 fb 8b 3e 3c 97 a9 3e c3 ad 93 3e
       0.19270986 0.27340284 0.33123195 0.28843507
000280 92 fc 58 3e f8 e3 83 3e ed 7e 83 3e 7a a9 66 3e
       0.21190098 0.25759864 0.25682774 0.22525588
000290 c2 48 b4 3e 7c 57 ae 3e 4c df 76 3e c0 32 68 3e
       0.3521176 0.3405112 0.24108618 0.2267561
0002a0 01 0c 82 3e f1 c8 9d 3e fa 7f 8e 3e 66 0d 73 3e
       0.25399783 0.3081737 0.27832013 0.2373558
0002b0 ba 15 82 3e e5 58 64 3e 0f 0e b6 3e 59 03 c9 3d
       0.254072 0.22299536 0.355576 0.09815092
0002c0 25 09 25 3e 63 de 29 3e 11 05 cf 3d df 4b 5b 3e
       0.1611677 0.1658874 0.10108388 0.21415661
0002d0 02 02 fa 3d 7e 56 63 3d 90 a5 13 3c 57 a8 54 3e
       0.12207414 0.055502407 0.009011641 0.20767342
0002e0 f6 0f 1d 3e ee c5 d1 3d ce 4a 43 3c f0 58 a2 3d
       0.1533812 0.1024283 0.01191969 0.0792712
0002f0 39 a3 2e 3d 7d db 9f 3d 46 29 27 3e 3d 2d f9 3d
       0.04263613 0.07805536 0.16324338 0.12166832
000300 3f ea bc 3d 4d 1e 02 bd 40 f4 0f 3e a5 c5 0a 3e
       0.092243664 -0.03176718 0.14058018 0.13551958
000310 90 ce 9d 3d 93 8e 49 3e 0b d6 48 3e 32 14 22 3e
       0.07705414 0.19683294 0.19612901 0.15828016
000320 d5 c5 7a be 44 d7 b3 be f2 9f a3 be f7 e7 b8 be
       -0.2448953 -0.35125172 -0.31957966 -0.36114475
000330 79 4b 8e be af e3 78 be 8a f8 8f be a4 e3 97 be
       -0.27791956 -0.24305604 -0.28119308 -0.29665864
000340 bc 62 9a be 34 8f 91 be 84 51 b8 be f6 d4 a7 be
       -0.30153453 -0.28429568 -0.3599969 -0.32779664
000350 b7 de af be c9 be b6 be 34 01 ae be 15 a8 8a be
       -0.34349605 -0.35692433 -0.33985293 -0.2708136
000360 a9 a8 8f be cf aa 86 be 8d 85 b8 be c6 64 98 be
       -0.28058365 -0.26302192 -0.3603939 -0.29764384
000370 bd 10 b4 be 96 08 6d be d1 4b 78 be 01 50 97 be
       -0.3516902 -0.23147807 -0.24247672 -0.29553226
000380 d9 ba 96 be 02 48 7c be cc 70 ba be 49 b9 90 be
       -0.29439428 -0.24636844 -0.36414182 -0.2826636
000390 90 12 90 be a0 d7 a3 be 2a 0b 95 be d6 10 9b be
       -0.28139162 -0.32000446 -0.2911008 -0.30286282
0003a0 28 7f 71 be 5b 2e 84 be 28 00 ad be 26 09 af be
       -0.23583663 -0.25816616 -0.33789182 -0.34186667
0003b0 3d f8 9b be 35 40 6e be 97 d8 97 be 4a 8d 97 be
       -0.30462828 -0.2326668 -0.29657432 -0.29599983
0003c0 a5 2f 9f be 6f fc b0 be 64 18 96 be 3b b8 a1 be
       -0.31091037 -0.34567592 -0.29315484 -0.3158587
0003d0 ca 7b 88 be 0c cb 92 be 6e 4b 88 be 0d cc 9d be
       -0.26656944 -0.28670537 -0.26620048 -0.3081974
0003e0 12 36 82 be d3 49 8d be 63 9e 6e be 4b bc a4 be
       -0.25431877 -0.27595386 -0.23302607 -0.32174906
0003f0 0f 85 bb 3e 45 7e 87 3e 2d 74 9b be 47 78 82 be
       0.36624953 0.26463524 -0.30362073 -0.2548239

conv2.bias f4 [16]
000000 aa ab d0 3d fe 32 a0 be f4 bc 81 be d2 62 79 3d
       0.10188992 -0.31288904 -0.25339472 0.060885258
000010 51 55 c5 be 34 95 9c be 5b e7 5d be 81 91 76 be
       -0.38541654 -0.30582583 -0.21670286 -0.24078943
000020 c3 26 a8 be c0 7f aa be d0 07 50 be c0 d2 10 be
       -0.32842073 -0.3330059 -0.2031548 -0.14142895
000030 01 76 a9 be 87 39 93 be 6c c2 5a be 14 e4 73 be
       -0.33097842 -0.28754827 -0.21363229 -0.23817474

conv3.weight f4 [32, 16, 3, 3]
000000 f1 70 af be e6 49 07 be e1 7c 6a be ec ee 90 be
       -0.34265855 -0.13211784 -0.228992 -0.28307283
000010 99 ac 54 be de 43 c7 be ae 8a 5f be 41 25 30 be
       -0.20768966 -0.38918966 -0.21830246 -0.17201711
000020 5e 82 ab be 85 35 be be 91 9c 94 be 65 22 9b be
       -0.334979 -0.37150207 -0.290257 -0.30299678
000030 9d db 91 be 9a e8 a7 be 1b 0f c1 be 61 51 91 be
       -0.28487864 -0.32794648 -0.37706837 -0.283824
000040 b0 1f a4 be 45 60 9d be 81 8b f5 bd 6b 0a bd be
       -0.32055426 -0.3073751 -0.11989499 -0.3692201
000050 a6 9a cb be c3 ba 31 be 03 97 ba be 01 81 92 be
       -0.39766425 -0.173564 -0.36443338 -0.28614047
000060 a7 68 c4 3e 55 7a b5 be 82 db d2 be eb 8e 19 be
       0.38361093 -0.35444894 -0.41183096 -0.14995925
000070 c7 32 56 be 66 b0 d4 be 9b d0 2f be a5 7a 8a be
       -0.20917808 -0.4154083 -0.1716942 -0.27046695
000080 3b 16 c5 be 87 ac b3 be df a4 7a be c6 3e 9c be
       -0.38493523 -0.35092565 -0.24476956 -0.30516642
000090 31 e0 94 be 1e c8 c0 be a6 39 c3 be 78 4b a6 be
       -0.29077294 -0.37652677 -0.3812992 -0.32479453
0000a0 04 2a 8b be 49 00 45 be 2b 32 95 be 83 3e 9b be
       -0.27180493 -0.1923839 -0.29139838 -0.3032113
0000b0 41 76 84 be c2 f5 94 be cc 4e 97 be 2b 5d 85 be
       -0.2587147 -0.29093748 -0.29552305 -0.26047644
0000c0 50 47 c5 be f1 da c0 be f1 52 a6 be 3f a1 bc be
       -0.3853097 -0.3766704 -0.32485154 -0.3684177
0000d0 d3 27 aa be 9a 23 a0 be dc 4c 93 be 14 bd cb be
       -0.33233508 -0.31277162 -0.28769577 -0.39792693
0000e0 36 3f 8c be 5e 9c 68 be 5a f3 1d be 99 90 6c be
       -0.27391976 -0.227159 -0.15424863 -0.23102035
0000f0 3f f5 bc be 8f e7 c8 be 53 e1 d7 be 0a a4 1f be
       -0.36905858 -0.39239165 -0.42164096 -0.1558992
000100 50 61 ed bd 39 37 cc be 52 fc 13 be 7c 9c be be
       -0.115908265 -0.39885882 -0.14451721 -0.37228763
000110 5e 75 ba be 40 85 8b be 9c 52 61 be d2 95 87 be
       -0.3641767 -0.272501 -0.22004169 -0.2648149
000120 73 1f d4 be 6e 45 ad be 1e 6c c1 be 62 59 c5 be
       -0.41430244 -0.33842033 -0.377778 -0.38544756
000130 d8 4a c5 be 93 ed 93 be 30 b2 cc be 79 83 54 be
       -0.38533664 -0.28892192 -0.39979696 -0.20753278
000140 3e 9b b8 be 8a 35 66 be f6 f9 53 3e 6c 2b 94 be
       -0.3605594 -0.22481361 0.20700821 -0.28939378
000150 28 20 13 3e b2 2e 9e be 62 84 67 be 14 62 b5 be
       0.14367735 -0.30895 -0.22609094 -0.3542639
000160 89 26 40 be ed 90 7b be 55 d3 5e be ad 1f b7 be
       -0.187647 -0.24567004 -0.21760304 -0.35766354
000170 1e 89 c8 be 39 bf cd be 17 c6 a2 be 58 44 8e be
       -0.39167112 -0.40184954 -0.31791756 -0.27786517
000180 36 85 bb be 08 c5 cf be 01 0a ce be 1a f6 aa be
       -0.3662507 -0.4058001 -0.40242007 -0.33390886
000190 ef 62 ae be 6d b9 96 be a9 01 bd be ec d0 59 be
       -0.34059855 -0.29438344 -0.3691533 -0.21271104
0001a0 97 0f 67 be d7 8a 8a be dd 7f 9f be 55 b2 a0 be
       -0.22564541 -0.2705905 -0.3115224 -0.31386057
0001b0 a3 74 a7 3d 8b ac b9 3d 53 d3 06 bd 75 77 15 be
       0.081765436 0.09066113 -0.03291638 -0.1459635
0001c0 d0 99 02 3e df 22 c5 3c 14 75 c6 bd d1 39 3a be
       0.12753987 0.02406448 -0.096903 -0.18186118
0001d0 c9 c2 41 3e fb 6e a5 be dc 15 da be e4 c4 c4 be
       0.18921961 -0.32311234 -0.42594802 -0.38431466
0001e0 03 b0 87 be 22 28 d5 be 9e 22 a6 be 68 1d a6 be
       -0.26501474 -0.4163218 -0.32448286 -0.3244431
0001f0 8b c0 8e be 94 ec bd be c3 53 d5 be a6 58 aa be
       -0.27881274 -0.37094557 -0.41665468 -0.33270758
000200 a4 a7 b2 be ee 82 b5 be 5d 1a a3 be 8a 3d 97 be
       -0.34893525 -0.35451454 -0.3185605 -0.29539138
000210 e0 f5 72 be 3f 86 32 be 13 3c cd be d6 aa ab be
       -0.23726606 -0.17434023 -0.40084895 -0.33528775
000220 f4 06 b6 be fe 60 92 be 2d 36 64 be 86 78 9f be
       -0.3555218 -0.28589624 -0.22286291 -0.3114664
000230 5d 15 a7 be f9 24 ad be 22 4b b0 be 9d 67 96 be
       -0.32633486 -0.3381727 -0.34432322 -0.29375926
000240 f3 53 9a be d6 5e 99 be 62 c6 8f be 86 fb 91 be
       -0.30142173 -0.29955167 -0.28081042 -0.2851221
000250 02 3f c5 be 37 9f 81 be af 3c 9c be af 53 a0 be
       -0.38524634 -0.25316784 -0.30515048 -0.31313846
000260 75 84 80 be e8 5a 9b be 23 08 b3 be 09 d5 88 be
       -0.25101057 -0.30342793 -0.34967145 -0.26725033
000270 57 f1 9e be e8 a6 75 be f4 0e 93 be 76 81 c1 be
       -0.31043503 -0.23989451 -0.28722346 -0.37794083
000280 47 16 a7 be 24 33 8c be ce 66 1e be 79 af 7f be
       -0.32634184 -0.27382767 -0.15468904 -0.24969281
000290 2b 65 89 be 5b 33 82 be bc af 98 be ba e5 92 be
       -0.26834998 -0.25429806 -0.29821575 -0.28690892
0002a0 6b fe a9 be 85 3a 9a be 1e 26 80 be 16 51 89 be
       -0.33201918 -0.30122772 -0.2502908 -0.26819676
0002b0 1d 5b a2 be 4c cf 88 be 75 b1 cd be c1 6d 87 be
       -0.3171014 -0.26720655 -0.4017445 -0.26450923
0002c0 e8 e7 21 be a5 7a 83 be 5d 94 8c be da 86 d1 be
       -0.15811121 -0.25679508 -0.27456942 -0.40923196
0002d0 33 a1 b0 be bc 6f 59 be ea 61 29 be 23 4c 2e be
       -0.34497985 -0.2123403 -0.16541258 -0.17021231
0002e0 93 11 15 be df 9a d1 be cd f4 c8 be 9c f4 9e be
       -0.14557485 -0.4093847 -0.39249268 -0.31045997
0002f0 5d 70 c6 be 47 7f 80 be 1b 9f 21 be 2d 66 91 be
       -0.387576 -0.25097105 -0.1578335 -0.28398266
000300 c3 2f b8 be e2 c7 6a be 35 40 5e be ae f8 c8 be
       -0.3597394 -0.22927812 -0.2170418 -0.39252228
000310 02 8d a9 be 7c 63 90 be 5f 58 c2 be 76 63 81 be
       -0.33115393 -0.282009 -0.37958047 -0.25271195
000320 d9 4a 85 be 3f 22 b9 be c2 f6 a4 be ee 96 88 be
       -0.26033667 -0.3615894 -0.3221951 -0.2667765
000330 1d d9 88 be 5b 3d 92 be d0 0f cf be cc b4 86 be
       -0.26728144 -0.28562436 -0.4044175 -0.26309812
000340 02 a9 7c be 4f 7f c1 be 43 eb a1 be 56 d6 77 be
       -0.24673846 -0.3779244 -0.31624803 -0.24202856
000350 4b 36 8c be ea 56 9c be d8 dd 41 be 42 01 6d be
       -0.27385172 -0.3053506 -0.18932283 -0.23145011
000360 5d 60 65 be 70 75 84 be c1 5a 1a be 9b e4 56 be
       -0.22400041 -0.25870848 -0.15073682 -0.20985644
000370 8f a1 31 be cf 84 b8 be f8 b5 8e be 8a cf b8 be
       -0.17346786 -0.36038825 -0.27873206 -0.3609584
000380 e4 30 a0 be 63 d1 9b be f3 c3 86 be 26 42 b3 be
       -0.312873 -0.30433187 -0.26321372 -0.35011405
000390 e4 b6 8c be 17 bb 9c be 37 d3 1b be 9b 33 aa be
       -0.27483284 -0.30611488 -0.15217291 -0.33242497
0003a0 7a 24 a3 be 12 7e 89 be 4f e9 8c be 4f 45 2a be
       -0.31863767 -0.26853997 -0.2752175 -0.16628002
0003b0 be c0 53 be 1e 16 6c be 5d 4f 67 be 04 0f 96 be
       -0.20678994 -0.23055312 -0.22588868 -0.2930833
0003c0 22 df 4e be 77 33 62 be 69 9f 15 be de 66 8f be
       -0.20202306 -0.22089945 -0.14611591 -0.2800817
0003d0 c3 ad 61 be 6f 05 6e be cd 1d a4 3e 9a 2b b0 be
       -0.22038941 -0.2324426 0.32053986 -0.34408265
0003e0 36 04 91 be 4b 0c 83 3e 49 a2 9c be 05 42 ad be
       -0.28323525 0.25595316 -0.30592564 -0.3383943
0003f0 3f 38 ac be 71 b2 61 be d0 33 87 be b6 b7 86 3e
       -0.33636662 -0.22040726 -0.26406717 0.26312035

conv3.bias f4 [32]
000000 30 5a ce be b6 72 24 be 99 37 86 be 06 4f e1 3d
       -0.40303183 -0.16059384 -0.26214293 0.11001401
000010 87 7f 5a be 7c 0b 84 be 74 d9 3b be 84 de 43 3e
       -0.2133771 -0.25790012 -0.1834467 0.19127852
000020 9e 08 ad be 9c 0a 6e be 73 c6 ab be 33 fb 75 be
       -0.33795637 -0.23246235 -0.33549842 -0.24021606
000030 40 63 7c be e6 63 85 be e9 3c b1 be df 32 cb be
       -0.24647236 -0.2605278 -0.34616783 -0.3968725
000040 52 52 59 be 35 4b 46 be 9c d8 6d bd 21 6a 82 be
       -0.21222809 -0.19364627 -0.058067903 -0.25471595
000050 22 ee 34 be ed e7 97 be e5 61 e0 be 27 7c b3 3d
       -0.17668965 -0.29669133 -0.43824688 0.087639146
000060 9a bb ac be 7c e5 41 be 37 6e 4d be 3e e1 95 be
       -0.3373688 -0.18935198 -0.20061575 -0.2927341
000070 80 10 6b be 84 61 b1 be d8 11 ae be 31 ee 5d be
       -0.22955513 -0.3464471 -0.3399799 -0.21672894

conv4.weight f4 [16, 32, 3, 3]
000000 77 67 d5 be 50 b6 aa be 82 07 9c be 39 1e d4 be
       -0.416805 -0.33342218 -0.30474478 -0.41429308
000010 a3 6b cf be ba da 44 be 14 67 23 be 03 3f 0a be
       -0.40511808 -0.19224063 -0.1595729 -0.135006
000020 c9 ee f1 bd ae 35 59 be ba cc 35 be ed a5 8e be
       -0.11813123 -0.21211883 -0.17753878 -0.27860966
000030 ae 07 91 be 83 62 81 be 3f 79 81 be 04 1a 90 be
       -0.28326172 -0.2527047 -0.25287816 -0.28144848
000040 8c 8b 8b be 65 79 5a be 58 6b 9c 3e 47 33 8c 3e
       -0.27254903 -0.21335371 0.30550647 0.27382872
000050 c5 06 94 3e 31 72 a8 3e fb 78 81 3e ea 8d b3 3e
       0.28911415 0.3289962 0.25287613 0.3506921
000060 c2 4d 91 3e 5d d5 7c 3e 42 be a8 3e 3d d5 9e be
       0.28379637 0.24690767 0.32957655 -0.31022063
000070 aa 7b b0 be ae 98 88 be 87 00 91 be 77 83 b9 be
       -0.34469348 -0.26678985 -0.28320715 -0.36233112
000080 e6 20 83 be bd d7 a3 be b8 94 c5 be ae 68 bb be
       -0.25611037 -0.32000533 -0.38590026 -0.36603302
000090 a3 61 91 be 28 00 8a be 61 7f 4d be d7 3b 37 be
       -0.28394803 -0.26953244 -0.20068122 -0.17893921
0000a0 79 22 85 be 2a 77 5d be 06 75 88 be 2f 0a 3d be
       -0.26002863 -0.21627489 -0.26651782 -0.18460916
0000b0 1a 2f 49 be b7 b9 5e be 49 a9 61 be 32 28 8a be
       -0.19646874 -0.21750532 -0.22037233 -0.26983792
0000c0 05 36 2e be f1 28 49 be e4 fd 73 be 67 ee 53 be
       -0.17012794 -0.19644524 -0.2382732 -0.20696412
0000d0 9b da 75 be 39 1b 8a be ec 23 49 be 3e b5 5f be
       -0.24009173 -0.26973894 -0.1964261 -0.21846482
0000e0 10 d1 75 be 20 bc 35 be 88 f4 2f be c8 a6 78 be
       -0.24005532 -0.17747545 -0.17183125 -0.24282372
0000f0 e0 5f 6f be 0f 91 87 be 85 1d 79 be 2f 80 b3 be
       -0.23376417 -0.26477858 -0.24327667 -0.35058734
000100 d6 5c b6 be d4 a5 d6 be d0 43 e0 be b3 61 9b be
       -0.35617703 -0.41923392 -0.43801737 -0.30347976
000110 17 4e b4 be b4 66 ad be fc 80 91 be 21 f9 97 be
       -0.35215828 -0.3386742 -0.2841872 -0.29682258
000120 c7 f4 6d be 0c 79 40 be d2 b9 56 be 1b 29 94 be
       -0.23237906 -0.18796176 -0.20969322 -0.2893761
000130 8a eb 83 be ba ac 35 be 4a f7 2e be a7 1d 8b be
       -0.2576564 -0.17741671 -0.17086521 -0.2717106
000140 91 e1 9e be 32 fe a5 be 0c f2 30 be 7d 7e 40 be
       -0.3103147 -0.32420498 -0.17279834 -0.18798251
000150 50 96 94 be 03 e5 79 be 99 13 8c be dd 76 a6 be
       -0.2902093 -0.24403767 -0.27358702 -0.3251256
000160 81 da 8e be ea bf a2 be 54 dd 3e be 1d b5 8d be
       -0.2790108 -0.31787044 -0.18639117 -0.2767724
000170 36 d2 85 be 4e 3b 45 be 97 85 5f be 3f c9 90 be
       -0.2613694 -0.19260904 -0.21828304 -0.2827854
000180 9a a4 6e be ae cf 85 be fa 23 34 be 30 c9 a1 be
       -0.23304978 -0.2613501 -0.17591849 -0.31598806
000190 fe 21 a7 be 34 ad 8b 3e bd ee 91 be 91 f7 96 3e
       -0.3264312 0.2728058 -0.28502455 0.29485753
0001a0 f5 ac 9d 3e 70 5d 97 be 31 30 8f 3e 98 7a 9f 3e
       0.30796018 -0.29563475 0.27966455 0.3114822
0001b0 28 10 97 3e 7f d7 84 be a6 91 8b be 1c 56 88 be
       0.29504514 -0.2594566 -0.27259558 -0.26628196
0001c0 0b 07 a6 3e 01 0d b6 3e 1c 8e 81 3e 86 65 9f 3e
       0.32427248 0.35556796 0.25303733 0.31132144
0001d0 ff 03 86 3e 71 7c 51 be 58 10 84 be ed dd 78 be
       0.26174924 -0.20457627 -0.2579372 -0.24303408
0001e0 84 f7 68 be 6d f4 35 be 7e 0b 85 be 3f 2b 86 be
       -0.2275067 -0.17769022 -0.2598533 -0.2620487
0001f0 a3 7f 66 be 2f 3a 44 be b5 02 b5 3e f6 7e 8c 3e
       -0.22509627 -0.1916282 0.35353628 0.27440614
000200 05 1a 9b 3e 67 c4 99 3e f2 ec 8e 3e 0d af 96 3e
       0.3029329 0.30032656 0.2791515 0.29430428
000210 45 7c a2 3e 3c 8c 83 be b9 57 96 be 07 22 f3 3c
       0.31735435 -0.25692928 -0.29363802 0.029679311
000220 d1 6f 43 3e da 3f e3 bc 95 d1 b0 bd 97 c7 14 be
       0.19085623 -0.027740408 -0.086337246 -0.14529262
000230 26 5f af be 2f a5 8a 3d f0 65 c6 be a3 83 e9 be
       -0.3425228 0.067697875 -0.38749647 -0.45608243
000240 94 78 36 be 42 a5 45 be 41 16 73 be de d4 5b be
       -0.17819434 -0.19301322 -0.23738958 -0.21467921
000250 cd 3a 67 be 99 64 64 be d6 d3 92 be 85 b1 6e be
       -0.22581024 -0.22304 -0.28677243 -0.23309906
000260 e4 56 2e be bb a7 04 be 3a a2 1d be e5 d7 0b be
       -0.17025334 -0.12954609 -0.15393916 -0.13656576
000270 22 9e 15 be 3e 0f c5 bd 9a d1 17 be 83 40 11 be
       -0.14611104 -0.09622048 -0.1482605 -0.14184766
000280 4d f5 15 be 23 19 1f be 47 4d a3 be d4 34 a4 be
       -0.14644356 -0.15536933 -0.31894895 -0.32071555
000290 25 23 9f be 3d af a3 be 00 bf ad be 76 0d 89 be
       -0.310815 -0.31969634 -0.33934784 -0.26768082
0002a0 ff fd b9 be af f9 61 be c7 e7 50 be 4f f2 a9 3e
       -0.36326596 -0.22067903 -0.20400916 0.3319268
0002b0 da d7 7c 3e 2c 95 9f be eb 1c 7b 3e 81 4a 88 be
       0.24691716 -0.31168497 0.2452275 -0.26619342
0002c0 23 ab 91 be 32 f0 77 3e a6 b0 9c be 05 80 7a be
       -0.2845088 0.24212721 -0.30603522 -0.24462898
0002d0 cd c7 89 be eb d9 82 be 88 cc 94 be d4 75 40 be
       -0.26910248 -0.25556883 -0.29062295 -0.18794948
0002e0 05 03 4e be 6f fb 6c be cc d2 66 be e5 0e 8f be
       -0.2011834 -0.2314279 -0.2254135 -0.2794105
0002f0 42 81 8d be 18 0b 41 be 4a f2 43 be 74 3b 91 be
       -0.27637678 -0.18851888 -0.19135395 -0.28365672
000300 ed ea 3b be d3 2f 9a be 15 66 4d be e5 2d 93 be
       -0.18351336 -0.30114612 -0.20058472 -0.28745952
000310 56 f1 51 be 6f 5e b5 be 32 83 ae 3e cd f0 92 3e
       -0.20502219 -0.3542361 0.3408447 0.2869934
000320 5a 7d 87 3e ee f2 93 3e 7d 10 90 3e cb 5e 96 3e
       0.26462823 0.28896278 0.2813758 0.29369196
000330 a3 af 81 3e ed f3 88 be 0e e7 81 be c5 37 ac be
       0.25329313 -0.267486 -0.25371593 -0.336363
000340 f2 42 ba be f7 7f b2 be 1c 53 96 be ef 72 ba be
       -0.363792 -0.34863254 -0.29360282 -0.36415812
000350 d5 1e 90 be 35 ac c0 be 9f 66 c5 be 6b e6 94 be
       -0.28148523 -0.37631384 -0.38554856 -0.29082045
000360 eb 43 a8 be 57 83 54 3e 4e 4b 89 be 0c 78 98 be
       -0.32864317 0.20753227 -0.26815265 -0.29779088
000370 4b 19 9a be 63 d3 89 3e a3 3c 9c be fa 0d 91 be
       -0.30097422 0.26919088 -0.30515012 -0.28330976
000380 82 43 ab be de c5 92 be 93 9e a6 be a0 98 64 be
       -0.33449942 -0.28666586 -0.32542858 -0.22323847
000390 29 ae 8d be be d9 35 be ab 4e 65 be 37 b2 64 be
       -0.27671936 -0.17758843 -0.2239329 -0.22333609
0003a0 d4 4f 2d be e5 37 2f be d3 be 5a be 3d de 79 be
       -0.16924983 -0.17111166 -0.21361856 -0.24401183
0003b0 51 90 7c be db 3e 41 be f8 63 77 be 24 bc 3d be
       -0.24664427 -0.18871634 -0.24159229 -0.18528801
0003c0 95 11 83 be 5c 59 8b be 0d 13 85 be 40 08 74 be
       -0.25599352 -0.27216613 -0.25991097 -0.23831272
0003d0 38 e3 53 be e2 34 58 be 0a 22 2f be 7e 6d 68 be
       -0.20692146 -0.21113923 -0.17102829 -0.22698018
0003e0 b7 73 34 be c6 77 7c be 82 d8 86 be 7e 15 61 be
       -0.17622267 -0.24655065 -0.26337057 -0.21980855
0003f0 2b f5 76 be 65 f2 80 be c7 2d 71 be 53 76 7c be
       -0.24116962 -0.25184932 -0.23552619 -0.24654512

conv4.bias f4 [16]
000000 a8 a1 39 be 25 51 39 be 4d 5a 97 be 97 b4 71 be
       -0.18128073 -0.1809736 -0.29561082 -0.23604046
000010 b8 f0 9d be 4b ea b1 be 08 3c c3 be fb 92 ad be
       -0.30847716 -0.34749064 -0.38131738 -0.339012
000020 d3 b0 99 be fe 1c b1 be 04 8c 9d be 4c f9 54 be
       -0.3001772 -0.34592432 -0.30770886 -0.20798224
000030 8c 34 c1 3e ce b4 b1 be ec 94 b5 be 87 10 c8 3e
       0.37735403 -0.34708256 -0.3546518 0.3907511

conv5.weight f4 [8, 16, 3, 3]
000000 f3 5c b2 be cb e5 80 be 61 0c 81 3e 72 69 68 be
       -0.3483654 -0.25175318 0.25204757 -0.22696474
000010 ca aa 86 be 5b 80 a1 be 7f 01 86 be c5 2a b1 be
       -0.26302177 -0.3154324 -0.26173016 -0.34602943
000020 86 ab 6e 3e 4f 7b 8c be 17 54 8a be ca ea 6e 3e
       0.23307618 -0.27437827 -0.2701728 0.23331752
000030 f9 e4 48 be 8d 0f 93 be d2 8c 95 3e 90 05 81 be
       -0.19618596 -0.28722802 0.29209 -0.25199556
000040 1c d7 86 be d1 a8 5b 3e 31 f0 ab be cf 08 a1 be
       -0.2633599 0.21451117 -0.3358169 -0.31452033
000050 35 d8 a5 3e 9b 79 4e be f3 f1 8b be 39 7d 92 3e
       0.32391515 -0.20163576 -0.2733303 0.28611162
000060 6b 83 52 be 9b 17 48 be df 11 b2 3e c8 dc b3 be
       -0.20557944 -0.19540255 0.3477926 -0.3512938
000070 ae 03 9f be f0 53 b8 be e8 05 b5 be 46 63 91 be
       -0.31057495 -0.3600154 -0.3535607 -0.28396052
000080 48 f0 94 be 4b a2 b8 be bf 32 8e be 43 75 aa 3e
       -0.2908957 -0.3606132 -0.2777309 0.3329259
000090 6b 09 a9 bb 42 5e 98 bd d6 e7 32 3c 20 a6 8c 3d
       -0.0051585934 -0.07439853 0.010919532 0.06867623
0000a0 86 9c 9c bd 1a 24 9d bd 6b ad bc 3b 36 c6 71 3c
       -0.07647042 -0.076729015 0.0057579777 0.01475673
0000b0 43 13 96 bd 03 09 4d bd cb e2 64 bc c8 9c 58 3d
       -0.07327893 -0.050057422 -0.013970087 0.052883893
0000c0 9b 16 82 bc 60 b2 8c 3d fe 92 9b 3d b6 0f 83 3c
       -0.01587992 0.0686996 0.07596396 0.015998702
0000d0 d6 1d 7a bd d0 f2 83 3d c5 53 9b be d5 d2 b2 be
       -0.06106361 0.06442797 -0.3033735 -0.34926477
0000e0 6d b8 75 be 76 8b b3 be f4 c9 8f be 76 79 85 3e
       -0.23996134 -0.35067338 -0.28083766 0.2606923
0000f0 59 6a 76 be f5 c4 ac be 63 f9 af 3e 76 56 47 3e
       -0.24064006 -0.33744016 0.34369954 0.19466576
000100 39 5e 63 3e 81 32 5d 3e bd 76 a1 be ce d7 6a be
       0.22203912 0.21601297 -0.31535903 -0.22933885
000110 37 15 58 be 66 07 4d be 64 f7 9d be 67 81 88 be
       -0.21101843 -0.20022354 -0.30852807 -0.26661226
000120 00 dc 4e bb f6 c0 67 3d 3b 12 77 bd b0 ba 67 3d
       -0.0031564236 0.056580506 -0.06032012 0.056574523
000130 a0 9b 90 bd ae 99 44 bd 10 91 95 bd f6 57 83 bd
       -0.07060933 -0.047998123 -0.07303059 -0.064132616
000140 e0 35 b4 bc 8b c0 ff 3c d2 bf 9d 3d 4b f4 9b 3c
       -0.021998346 0.031219741 0.077026024 0.019037386
000150 76 ef 81 bc f0 f7 02 bd 60 8d 05 3c 7b 85 60 bd
       -0.015861254 -0.031974733 0.008151382 -0.054814797
000160 03 1e 0f bd 80 65 16 3c 40 4e 89 bd 0c ae 87 3d
       -0.03494073 0.009179473 -0.06704378 0.06624994
000170 d6 85 27 3d 98 49 39 3d 80 83 79 3b 2b eb 9f bb
       0.04089912 0.0452362 0.0038072765 -0.004880329
000180 0e 96 8d bd 16 31 98 bb 50 79 cc bc b2 a3 a5 be
       -0.06913386 -0.0046445234 -0.02496019 -0.32351452
000190 91 bc 7c be d8 03 8a be 50 0f 76 be e7 e5 af be
       -0.24681307 -0.26956058 -0.24029279 -0.3435509
0001a0 3e da 80 be 11 c7 67 be 89 60 49 be 41 90 a2 3e
       -0.25166506 -0.22634532 -0.19665731 0.31750682
0001b0 35 3b 9f be d4 3a a2 be 0f cc 9d 3e c6 6b 88 be
       -0.3109986 -0.31685507 0.30819747 -0.26644725
0001c0 5b 1f b0 be fc d2 75 3e 82 11 8b be 12 b7 97 be
       -0.34398922 0.24006265 -0.27161795 -0.2963186
0001d0 2d f1 96 3e 46 b5 c0 3c 54 ef 8f bd db ca ca bc
       0.29480878 0.023523938 -0.0702807 -0.024754932
0001e0 6b 5d 3e 3d 3b 3a 44 3d 78 77 92 bd 80 12 6c 3d
       0.04647581 0.047907095 -0.07151693 0.05763483
0001f0 36 ec 4d bd 50 25 82 bd b2 94 7d be 99 09 8e be
       -0.050274096 -0.06354773 -0.24763754 -0.27741697
000200 15 0b 67 3e 21 36 95 be 75 9d b8 be 99 98 a0 be
       0.22562821 -0.2914286 -0.3605763 -0.31366423
000210 99 19 88 be 9d 6f 5e be 11 a1 69 3e 7b fa 62 be
       -0.2658203 -0.21722265 0.22815348 -0.22165863
000220 26 6e aa be eb ec 53 be d3 5c 8f be 91 5f 6c be
       -0.33287162 -0.20695846 -0.28000507 -0.2308333
000230 13 bf 9e be 01 a4 9a be 49 70 90 be 14 2e b1 3e
       -0.31005153 -0.3020325 -0.28210667 0.34605467
000240 78 bc 41 be 74 7b 9c be 6c fa cc be a2 c7 8e be
       -0.18919551 -0.30562937 -0.40034807 -0.27886683
000250 93 f6 ce be 8d 32 86 be f2 3e a6 be 38 f3 9e be
       -0.40422496 -0.26210442 -0.32469898 -0.31044936
000260 41 26 b4 be 83 4a 54 be 3f 89 ac be d2 a6 a0 be
       -0.35185435 -0.20731549 -0.3369846 -0.31377274
000270 95 5b 92 be 69 d7 c7 be e2 ee cf be ea 40 cf be
       -0.28585497 -0.39031532 -0.4061194 -0.40479213
000280 13 76 b1 be a9 35 c9 be 48 d7 4e be 6e 1a 6d be
       -0.34660396 -0.39298752 -0.20199311 -0.23154613
000290 a7 46 c3 be ac 10 3e be d3 5b 8e be 3c 2a 8c be
       -0.3813984 -0.18561047 -0.2780443 -0.27375972
0002a0 09 5c 94 be b4 e8 b9 be 6d 27 9c be d6 26 9c be
       -0.28976467 -0.3631035 -0.3049883 -0.3049838
0002b0 42 95 4e be de 84 88 be 66 b7 47 be a2 c5 54 be
       -0.20174125 -0.2666387 -0.19503555 -0.20778516
0002c0 a2 88 14 be 3a d8 3c be ac 3f 92 be e1 a0 24 be
       -0.14505246 -0.18441859 -0.28564203 -0.16076995
0002d0 18 2b 98 be 40 e6 71 3e 41 0f ba be a8 e8 b8 3e
       -0.29720378 0.2362299 -0.36339763 0.36115003
0002e0 da 8f 83 3e 65 47 b5 be 59 6a 78 3e 4f c0 b2 3e
       0.25695688 -0.35406032 0.24259318 0.34912345
0002f0 d0 42 8a be 7f 2f 86 be 80 f6 5f be db 26 8a be
       -0.270041 -0.26208112 -0.21871376 -0.2698277
000300 f3 58 a4 3e 3b 58 77 be 5e b5 7c 3e af 85 8c be
       0.32099113 -0.24154751 0.24678561 -0.27445742
000310 2c a1 90 be 62 cb 8e be 89 d4 32 be da 43 65 be
       -0.28247964 -0.27889544 -0.17463888 -0.22389165
000320 f8 06 8d be 33 4c 4c be 21 40 64 be 1e 0e 46 be
       -0.2754438 -0.19950943 -0.22290088 -0.19341323
000330 6d b9 55 be d6 a5 4e be 80 09 91 be 33 3b 88 be
       -0.20871516 -0.20180449 -0.2832756 -0.26607665
000340 21 3d 47 be 53 b1 b5 be 82 a4 30 be 3c 63 3d be
       -0.19456913 -0.3548685 -0.17250255 -0.18494886
000350 05 f7 9e be ca 9c ad be 25 9d 93 be d9 28 95 be
       -0.31047836 -0.33908683 -0.2883083 -0.29132727
000360 a2 a9 91 be e3 0a ae be a1 2a ae be e7 29 94 be
       -0.28449732 -0.3399268 -0.34016898 -0.2893822
000370 f7 a3 6c be 5b e6 99 be bf 4f a0 be a6 44 8f be
       -0.23109423 -0.3005856 -0.3131084 -0.27982062
000380 e8 3a 72 be 26 ab a4 3e a6 4e a0 be f7 1b 7e be
       -0.23655283 0.32161826 -0.31310004 -0.24815355
000390 60 21 8f 3e fd a7 82 be 17 26 8f be 2d c2 93 be
       0.2795515 -0.2551879 -0.27958748 -0.28859082
0003a0 47 df 73 be 7a 66 b2 be 73 b5 78 be 19 ca 87 3e
       -0.23815642 -0.34843808 -0.24287967 0.26521376
0003b0 de ab 95 be e2 3c 6d be 35 e3 77 be 83 4a 6f be
       -0.29232687 -0.23167756 -0.24207766 -0.23368268
0003c0 4c d5 87 be 0a b6 8b be ac d2 78 be 6c 51 b4 be
       -0.2652992 -0.27287322 -0.24299115 -0.3521837
0003d0 b8 ea 84 be 3d de 7d be 92 d4 8f be 3f b0 ca be
       -0.25960326 -0.24791808 -0.28091866 -0.3958759
0003e0 a6 06 d2 be ea a4 c2 be 25 85 c9 be f3 f8 8a be
       -0.41020697 -0.38016444 -0.39359394 -0.27143058
0003f0 57 b6 8a be 99 34 86 be 6f aa 1a be 9e 97 8e be
       -0.2709224 -0.26212004 -0.15104078 -0.2785005

conv5.bias f4 [8]
000000 de 4d 84 3e 40 71 8f be da 8e a7 be d9 3b 31 be
       0.25840658 -0.2801609 -0.32726175 -0.17307986
000010 e2 ad c1 be 1b 36 ce be 29 44 a7 be b9 b9 a0 be
       -0.37827975 -0.40275654 -0.3266919 -0.31391695

fc1.weight f4 [128, 1568]
000000 29 d4 c3 bc d6 17 84 bc b0 6b 8f bb 2b 29 75 3c
       -0.023904877 -0.016124647 -0.004376851 0.0149634285
000010 c5 47 92 3b 2a 7f 8b 3b d1 72 d4 bb b8 de 02 bb
       0.004464122 0.0042571025 -0.0064834137 -0.0019969177
000020 62 c8 b5 3c a8 d0 43 3c 2e b3 cb 3b 27 ad 77 bc
       0.022190277 0.011951603 0.0062164282 -0.015116966
000030 b1 95 95 3c c5 99 af 3c 61 79 55 3c d6 2a a3 bc
       0.018259855 0.021435628 0.013029427 -0.019917887
000040 88 32 ce ba aa ea 08 3c 2e 89 8a bc 5d 58 b6 3a
       -0.0015731612 0.0083567295 -0.016911115 0.0013911832
000050 c9 96 2b 3c 1c d3 10 bc e5 e8 93 3c ac f9 24 bb
       0.010472962 -0.008839395 0.018055389 -0.002517323
000060 2d a7 ff bb 5b 2e ba bb 67 fd a6 3c 18 72 a5 3c
       -0.0078019113 -0.0056817955 0.020384504 0.020196006
000070 4d 11 22 bc 27 e2 c0 3b 47 6e 02 3c 19 f2 2f ba
       -0.00989182 0.0058863345 0.0079608625 -0.00067117956
000080 8c 56 81 3c d0 b6 8a bc 88 a5 9a bc d1 99 68 3b
       0.01578834 -0.016932875 -0.01887776 0.0035492072
000090 e9 63 1b bc c0 83 a8 bc 56 23 ca bb 30 9c 88 3a
       -0.00948427 -0.020570636 -0.006168763 0.0010422524
0000a0 94 b2 79 bc 07 cc b7 bc e0 3f 1a 3a 81 2c cd 3c
       -0.01524033 -0.022436155 0.0005884152 0.025045635
0000b0 77 5f 85 bc ca 2c bd 3c fc c8 23 3c fc 37 e8 bb
       -0.016280873 0.023092646 0.009996649 -0.007086752
0000c0 48 2c 29 bc bc 8e 35 3a 3b 12 2a bb 08 b6 16 bc
       -0.010325499 0.0006925871 -0.0025950808 -0.009198673
0000d0 94 30 5e bc 0d 87 2c 3c 94 ad 0d bb a1 15 53 bc
       -0.013561387 0.0105302455 -0.0021618353 -0.012883575
0000e0 bb e8 90 3c b6 e5 7c bc 9d 1d b0 3c 88 96 e9 bb
       0.0176891 -0.015435627 0.021498496 -0.0071285404
0000f0 98 bc 17 bc 3a 42 6d bc cf 1d e1 3b 65 84 64 3c
       -0.009261273 -0.014481122 0.0068700085 0.013947581
000100 39 60 51 bc 4f aa 73 3c ab 64 bb 3c 53 a2 bf bc
       -0.012779289 0.014872148 0.02287515 -0.023392832
000110 8b 95 53 3b b4 46 6a 3c b7 fb b0 bc c2 c4 c1 bc
       0.003228518 0.0142990835 -0.021604402 -0.023653392
000120 f5 38 7f bc d9 d3 7a 3c c2 00 be 3c 15 44 c2 3b
       -0.015577544 0.0153092975 0.02319372 0.005928526
000130 57 5c eb bb 26 a0 a6 bc 4e 76 cc 3c b2 e6 b4 3c
       -0.0071826386 -0.020340037 0.024958756 0.02208266
000140 73 08 c6 bb 2b 61 5d bc 00 e4 92 3c 63 a1 92 3c
       -0.0060434877 -0.013511936 0.017930984 0.01789922
000150 2e e6 c0 3c 6a 50 9a 3c 70 fa 19 3c 52 69 ec bb
       0.023547258 0.018837173 0.009398088 -0.0072147036
000160 75 b7 b4 3c 87 a0 4d bc 96 05 57 3b fc 78 bf 3c
       0.022060135 -0.01255048 0.0032809726 0.02337312
000170 08 f3 b7 3c bc 5f bf 3c c8 63 a8 3b 2c a6 90 3a
       0.022454754 0.02336108 0.005138848 0.0011035851
000180 55 ef 2f bc 2f a0 60 bc eb cb ac bc 45 4e 1a 3b
       -0.010738214 -0.013710066 -0.02109333 0.0023545187
000190 84 b4 b5 bb 59 d5 03 3b 9e 70 b4 bc 2d 2d e7 bb
       -0.005545201 0.0020116179 -0.022026356 -0.007054946
0001a0 1f 63 cb bc 7b 10 ba bb 86 52 dc bb a4 58 9d bc
       -0.024827538 -0.005678234 -0.0067237047 -0.019207306
0001b0 23 5f b5 bc 73 42 aa 3c 0d dd 3a bc 27 07 39 bc
       -0.022140091 0.020783639 -0.011405242 -0.011293209
0001c0 d4 fc a0 3c 43 ba de 39 f2 14 42 3c c8 9f f2 3b
       0.019651808 0.00042481915 0.011845814 0.0074043013
0001d0 0f 0f 25 3c 0c b4 30 bb 9a f6 9e ba b6 a2 9d 3b
       0.010074391 -0.0026962785 -0.0012127936 0.0048106564
0001e0 eb 64 98 bc 40 30 89 bb 7d 87 be 3c f3 bc a9 bc
       -0.018602809 -0.00418666 0.023257965 -0.02071998
0001f0 24 7a 96 3b 29 07 df 3b df 9d 31 bc f7 ee b1 bc
       0.004592197 0.0068062735 -0.010840862 -0.021720393
000200 bc ec fb 3b 8a 4e 7d bb 42 a7 8d 3c 1c ce 8b 36
       0.007688133 -0.003865155 0.017291669 4.166517e-06
000210 3a 34 4c 3c 78 54 c0 bc d2 5a 14 bc 08 02 cc bc
       0.012463624 -0.023477778 -0.009054856 -0.024903312
000220 19 ae e7 39 da 6f 1c bb 83 a3 91 3c da 6d c3 3c
       0.00044189466 -0.002387038 0.017778164 0.023856092
000230 96 07 67 3c e3 55 29 3c b5 1f a9 bc 44 c8 87 bc
       0.01410093 0.010335418 -0.020645002 -0.016574986
000240 6d 42 1a bc 24 51 aa bb 5b c4 a6 3c c6 5b 2e 3c
       -0.009415251 -0.005197661 0.020357301 0.010641998
000250 c7 3d cb bb 62 89 c1 3c f8 15 b3 3c e6 b8 8a bb
       -0.006202433 0.02362508 0.021861061 -0.0042334674
000260 24 ba 8a 3c d9 4c cd bc 01 53 43 3c b5 14 24 bc
       0.016934462 -0.025061058 0.011921645 -0.010014703
000270 12 cc 0d bc 2b ce dc 3b c2 89 cb bc 4a 4f 69 bb
       -0.008654611 0.0067384443 -0.024845961 -0.0035600238
000280 4f 92 a9 bc 94 66 b6 3c c9 19 1d bc 10 8d ac 3b
       -0.020699648 0.02226571 -0.009588667 0.0052658394
000290 cd 31 72 3c 37 d6 3c bc eb f3 22 3b 42 3a b6 bc
       0.014782381 -0.011525682 0.0024864625 -0.022244576
0002a0 6d 37 b3 3c 26 32 1f 3b 64 cf ef bb e5 dc 66 3c
       0.021877015 0.0024291365 -0.007318424 0.014090751
0002b0 90 b8 49 bc 99 fb a0 bc 2f 55 83 3c ad fd 99 bc
       -0.01231207 -0.019651221 0.01603183 -0.01879772
0002c0 9d 12 a0 bc fd bb fe 3b 45 98 76 bc 76 7a 92 bc
       -0.019540126 0.007773875 -0.015050952 -0.01788066
0002d0 80 3e 99 3c ee 07 84 3c 64 a6 0e 3c 39 6e 7c bc
       0.01870656 0.016117062 0.008706663 -0.0154071385
0002e0 28 08 59 3b 74 22 07 3c 13 4d ce bc cd 65 a2 bc
       0.0033116434 0.00824796 -0.025183236 -0.019823933
0002f0 f0 ed dc bb 01 5d 88 bc 1c a3 43 3b 9a c0 80 3c
       -0.0067422315 -0.01664591 0.002985186 0.01571684
000300 f3 bc d9 bb bd 78 1d 3c 75 97 36 3c e6 b8 84 3c
       -0.006644839 0.009611306 0.011144509 0.016201448
000310 78 41 a5 be 12 64 a5 be 11 2a a4 be 26 8b 92 be
       -0.3227651 -0.3230291 -0.32063344 -0.28621787
000320 0b 0e 98 be f2 8d 9a be 1e 54 98 be dc 67 90 be
       -0.29698214 -0.3018642 -0.29751676 -0.28204238
000330 3f 0f 9c be bd e4 8f be c1 5e 9f be 13 c9 94 be
       -0.30480382 -0.281042 -0.3112698 -0.29059657
000340 7f 48 90 be e2 4a 8d be 30 09 93 be 2e 62 97 be
       -0.2818031 -0.27596194 -0.28717947 -0.29567093
000350 06 c4 9e be d1 6b 8d be 80 97 95 be 45 da 93 be
       -0.3100893 -0.2762132 -0.29217148 -0.28877464
000360 1d 67 90 be 25 34 a5 be 04 de a4 be 8c 5c 9d be
       -0.2820367 -0.32266346 -0.32200634 -0.3073467
000370 2b 08 a5 be cf f3 90 be c8 a1 a4 be fb 23 91 be
       -0.32232794 -0.2831101 -0.3215468 -0.28347763
000380 e4 4f 9e be 74 51 a2 be fb a0 97 be c6 ec 90 be
       -0.30920327 -0.3170277 -0.29615006 -0.28305644
000390 c7 a2 8e be 85 d1 9d be 40 f8 a5 be 63 2c a4 be
       -0.27858564 -0.30823913 -0.32415962 -0.32065114
0003a0 9a 97 a6 be d6 15 90 be ad 93 a5 be cf df a5 be
       -0.32537538 -0.2814166 -0.3233923 -0.32397315
0003b0 a2 fc 99 be f9 30 91 be cb 27 97 be a4 33 9d be
       -0.30075556 -0.28357676 -0.29522547 -0.3070346
0003c0 2d 7c 96 be 99 b5 a3 be bb 57 9c be 3d 76 98 be
       -0.29391614 -0.31974486 -0.30535683 -0.2977771
0003d0 66 19 9d be ab 40 a1 be 2c 28 9a be 44 b7 9e be
       -0.3068344 -0.3149465 -0.30108774 -0.30999196
0003e0 de 06 91 be 4e f1 9d be 3e 22 9b be 57 ad a0 be
       -0.28325552 -0.30848163 -0.30299562 -0.31382248
0003f0 b6 aa 9d be 44 2c 9f be 56 ce 96 be eb 3a 9e be
       -0.30794305 -0.3108846 -0.29454297 -0.30904326

fc1.bias f4 [128]
000000 e5 d3 97 be 98 54 4e be bc b7 d6 be bb 1b 57 be
       -0.2965385 -0.20149457 -0.41937053 -0.21006672
000010 ab be 67 be c9 ae 91 be 33 92 1e be 11 e1 96 be
       -0.22631328 -0.28453663 -0.15485458 -0.29468587
000020 1c 17 dc be 86 a8 63 be a6 85 b3 be b2 e1 e7 bd
       -0.4298638 -0.22232255 -0.35062903 -0.11322345
000030 14 a2 a1 be 58 0f 5b be 39 c2 32 be 0b fb 91 be
       -0.31568968 -0.21392572 -0.17456903 -0.28511843
000040 08 5b 73 be 0e eb 96 be 39 12 97 be 0b 44 98 be
       -0.23765194 -0.29476207 -0.2950609 -0.29739413
000050 65 a5 8f be b5 cd a6 be a1 0e 96 be 36 1d 63 bd
       -0.28055874 -0.32578817 -0.29308036 -0.05544778
000060 6f 40 82 be 64 af a9 bd f0 3e 80 bd 25 53 b0 be
       -0.25439784 -0.08285406 -0.062620044 -0.34438434
000070 de e2 41 be a8 8a 72 be ed c5 8e be 40 ea ca bc
       -0.18934199 -0.23685706 -0.2788538 -0.024769902
000080 1f 1d 96 be 15 d8 67 be 96 dd e3 bd 50 db 9c be
       -0.29319093 -0.22641023 -0.111262485 -0.30636072
000090 f1 f8 a1 be 7f 65 2c be 4b 07 53 be 6c ea 0f bd
       -0.3163524 -0.16835593 -0.20608251 -0.03513567
0000a0 b5 52 50 be 39 a0 44 be 2b d6 68 be 69 87 c8 be
       -0.2034405 -0.19201745 -0.22737949 -0.3916581
0000b0 7e d2 60 be f5 dc ca be c9 23 53 be 87 50 20 be
       -0.21955296 -0.39621702 -0.2061912 -0.15655719
0000c0 4c ac d3 bd 0a ee 5f be 39 63 2e bd dc c2 58 be
       -0.103355974 -0.21868148 -0.042575095 -0.21168083
0000d0 49 22 9d be b9 64 a5 be 60 b9 81 be 87 c6 c8 be
       -0.3069022 -0.32303408 -0.25336742 -0.39213964
0000e0 6f 95 43 be 4d 46 57 be 7d c6 4d be 7b 28 6b be
       -0.19099973 -0.21022911 -0.20095249 -0.22964661
0000f0 4e 35 55 be 54 75 87 be 01 b8 97 be 9c a8 94 be
       -0.20821115 -0.26456702 -0.2963257 -0.2903489
000100 93 00 66 be 08 5b 78 be 02 22 24 be 4b 2b ab bd
       -0.22461157 -0.24253476 -0.16028598 -0.08357867
000110 77 70 cc bc 71 87 83 bd 4c 7f 4c be fc 50 4d be
       -0.024955971 -0.06422318 -0.19970435 -0.20050424
000120 6c ae 9b be 4e 6e c6 be 5d c1 99 be ba 42 9d be
       -0.3040651 -0.3875603 -0.30030337 -0.3071497
000130 24 6e 30 be cb f4 1e be 17 56 6b be cb dc ba bd
       -0.17229515 -0.15523069 -0.2298206 -0.09124144
000140 a9 e8 8b bd 62 01 c4 bd 6f 45 41 be 90 6a a6 be
       -0.06831486 -0.09570576 -0.18874143 -0.32503176
000150 85 ce d7 bd 45 06 80 be 26 b9 42 be 4c ac 8f be
       -0.10537437 -0.25004783 -0.19015941 -0.2806114
000160 1d f8 33 be 7e de 94 be a9 a2 5d be c3 ef 9a be
       -0.17575116 -0.29075998 -0.21644081 -0.3026105
000170 81 a7 c4 be dc 73 5c be f4 34 82 be 8b 9f 53 be
       -0.38409045 -0.21528572 -0.25431025 -0.2066633
000180 d6 f8 94 be 22 e7 a3 bd 5b 87 5d be 3d a6 7d be
       -0.29096097 -0.080030695 -0.21633665 -0.24770446
000190 5f 41 5d be 26 d1 42 be 57 c8 76 be 23 93 71 be
       -0.21606968 -0.19025096 -0.24099861 -0.23591284
0001a0 3f 30 88 be 3d 09 8b be 6c da 72 be 92 08 91 be
       -0.2659931 -0.27155486 -0.23716134 -0.2832685
0001b0 21 ac 99 be 63 38 6e be 75 d0 a0 be 52 b8 47 be
       -0.30014136 -0.23263697 -0.3140904 -0.19503906
0001c0 2e ac 87 be d7 8b 16 be 29 86 11 bc 0d 9d 88 be
       -0.2649855 -0.14701782 -0.008882084 -0.2668232
0001d0 dd 3f 04 be 1e 69 5e be fa 75 da be 5c 84 69 be
       -0.12914987 -0.21719787 -0.42668134 -0.22804397
0001e0 01 e0 bc be 7a e4 d1 be cf 6a 98 be 1d eb 49 be
       -0.3688965 -0.40994626 -0.29768988 -0.19718595
0001f0 84 e2 a3 be 12 82 8f be fe fe 5b be f5 1a 18 be
       -0.32008755 -0.28028923 -0.2148399 -0.14854033
