model.pt (torch, 722805 bytes, 16 tensors)

conv1.weight f4 [32, 1, 7, 7]
00000000: 5209 13be 74e9 51ba 3b54 353d d50a 62bd
00000010: bd88 c03d 8f0b ef3c f6a8 3b3d 2e4a 09bb
00000020: 7798 05be 4c03 f1bc f880 b93b 92db 5b3d
00000030: 9db2 c43c 0e16 8bbd a0b6 993d 883b 3bbe
00000040: a57f cd3b 89fe 31bd ab22 46bd 0fe7 5dbe
00000050: b5d9 12bd d098 6e3c fbfb 583d 4f03 593d
00000060: b8b3 213b 3d43 0abe aff5 2cbe 63c2 103d
00000070: bbc6 9d3d 0617 61be 5ccb 00be 834a 83bd
00000080: ffcd 693d db65 f93d 26f5 fa3d 97a4 a0bb
00000090: de65 d63d b31a a2bd c2ad 4d3d 6bef e4bd
000000a0: a1aa 0c3e 6c8b b13d e0d5 0ebe 55d2 103e
000000b0: dd2d 7ebc 5281 e6bc 0c5b 0e3e f5c4 c7bc
000000c0: a1fc b2bd a385 71bb b8da 06be 271f 20be
000000d0: 31ae 6ebc 300e 003e 354b 633d b491 933d
000000e0: d65b 56be 0218 d4bd 2553 3d3c a738 52bd
000000f0: 1557 98bd ed77 c93d 0f80 193e 3629 c6ba
00000100: 4b1c 553e 5746 9bbe 7b2e 04bd 29bf 4ebc
00000110: a6c2 43bd 3ebd 1e3d 414f 0ebe b7fd f1bd
00000120: 7006 2c3d 3c50 d9bd 6099 4b3e e526 debd
00000130: eae0 2fbc 2c00 193c 1677 ec3d 2efe f4bc
00000140: dd31 b3bd ac6a e7bb 92e5 b53d deab cc3d
00000150: 7af4 833d 095f bcba 4a56 d9bc a5e4 833d
00000160: 0a88 ab3d 2dc6 f8bb b91e 303e 7f0c 0d3c
00000170: 1fbf afbd 2d6e 1f3e 7178 7dbc b608 59bc
00000180: 0a2d 28bd fa71 0b3e 170b acbc 73c7 a13d
00000190: ba4e f3bd e63f 9c3d f001 003d 4447 d0bc
000001a0: f50b 2cbe 2c75 c2bc 7963 493e a143 9bbd
000001b0: 37b7 b53c 8c01 023e 0d1a a8bd e4aa e8bd
000001c0: ae4d 36be c772 3b3d 49c0 173e 1e4d 2dbe
000001d0: 5dad 923d 2a4d d5bc d2d2 5f3d 4469 1b3e
000001e0: 69cf a53d eaa4 aebc ccaa 64be a65d b3bd
000001f0: a34c 503d bdf6 523e d0a9 523e 83f9 1ebe
00000200: 5669 e7bc 05b0 fabd 4526 dd3c bb7b ac3d
00000210: 0059 ccbc dcab 943b 3d64 f83b 335f 7fbd
00000220: 49d8 133d 507b 0abd 7a24 a4bd 0bbf a0bc
00000230: f23f 2b3e bfe5 2bbe 53b3 efbb 2c26 ff3d
00000240: 55f4 2b3e 29b7 9ebc d735 0c3e e544 8d3c
00000250: eb15 9c3d d6c9 943d cb70 843c 3d75 0e3e
00000260: 9f08 d23d c3d6 f83c 793a 873d 9970 93bd
00000270: 7853 d13d 4338 883d d958 c53d 9cfb fe3c
00000280: c77c 023e d4f4 c4bd 03cf 0dbc 2895 363e
00000290: 0f87 e7bd 8ee8 223d 81ae c1bc 1b35 8abd
000002a0: 499a c23d 7fd0 893d d07e 3e3d d6cc babd
000002b0: 4b4a 2b3e bdf9 23be ef19 e83c 272a 353e
000002c0: 37a3 143d 931c 84bd 26f6 23bd b1d1 883c
000002d0: dd65 823d 180d 1fbe f9f9 8a3d 85ca 77bd
000002e0: 8279 b33d 2346 0bbd 2c06 0abe 54bb d2bc
000002f0: 9ad5 abbd 5d0c 0d3d 876c 99bd df0f 6bbd
00000300: 817e b3bd 3a9d 09be 4f64 5ebd b8f7 1dbe
00000310: e1ba 8ebd 2c66 8ebd 7eb5 fc3c b943 4f3d
00000320: c68d 11be 3035 f1bd f8aa eebd d6e7 593d
00000330: 03ab d13d fc56 473e 6bdc 383d ccb1 0c3e
00000340: 8640 0e3e cf47 fd3a 56be ea3d f1a5 66be
00000350: 8b59 b2bb 5a3d 453d 76a7 74bd 3e97 45be
00000360: 1aa9 2d3d 7420 8a3d cecf 84bd 7d50 dd3d
00000370: a3ac 353d 7cfc 6d3d 1662 343e e555 213d
00000380: 8ae6 843c 94b0 803b 75d4 86b9 b502 1e3d
00000390: 9b87 4c3d d9ad f23d 5cfa e53d 7408 90bd
000003a0: c32e 9ebe 0bc9 2fbe 2a9e f2bd 0481 c93d
000003b0: 764e a23b f3e8 01be 9526 45be 2946 59bd
000003c0: fdaf 09be 087c c5bd 41c4 36be 200f 82be
000003d0: 0f23 7bbd 9e7a ec3d 3626 83bd 380e bc3d
000003e0: 6d8e a6bc 3dde 38bd a441 fb3d 7c5f a13d
000003f0: 938c 45be 50cf 4bbd f7d5 8b3d 5a6b d0bc
-0.14359024 -0.00080075045 0.04426978 -0.05518611 0.09401081 0.029180316 0.04581543 -0.0020948756
-0.13046442 -0.029420517 0.005661126 0.053676195 0.02401095 -0.06791316 0.07505536 -0.18284428
0.00627132 -0.043455634 -0.048372906 -0.21670173 -0.035852153 0.0145628005 0.052974682 0.05298167
0.002467377 -0.13502212 -0.16890596 0.03534163 0.077039205 -0.21981439 -0.12577575 -0.06410696
0.05708122 0.121776305 0.122537896 -0.004902433 0.104686484 -0.07915249 0.050214536 -0.11178478
0.13736965 0.08669171 -0.13948774 0.14142735 -0.015513864 -0.028137837 0.13901919 -0.024385909
-0.087395914 -0.0036853335 -0.13169372 -0.15636884 -0.014567898 0.12505412 0.055491645 0.07205525
-0.2093347 -0.103561416 0.011555468 -0.05132356 -0.074384846 0.09837327 0.14990257 -0.0015118483
0.20811574 -0.30327103 -0.03227089 -0.012618818 -0.047793053 0.038754694 -0.1389742 -0.118159704
0.041998327 -0.106110066 0.19882727 -0.10847262 -0.010734776 0.00933842 0.11546151 -0.029906359
-0.08749745 -0.007062277 0.08881678 0.099937186 0.064431146 -0.0014371584 -0.026530404 0.06440095
0.08375557 -0.007591984 0.1719922 0.008608936 -0.08581375 0.15569372 -0.01547061 -0.013246706
-0.041058578 0.13617697 -0.021001382 0.0789937 -0.1188025 0.07629375 0.031251848 -0.025424607
-0.16801436 -0.023737513 0.19666852 -0.075812586 0.02218209 0.12695903 -0.08208094 -0.1136072
-0.1780307 0.045763757 0.14819445 -0.16923949 0.07161973 -0.026037771 0.054644413 0.15176874
0.08096201 -0.021318872 -0.22330779 -0.087580964 0.050854336 0.20601936 0.20572591 -0.15524869
-0.02824847 -0.12240604 0.026995787 0.08422037 -0.024944782 0.004537089 0.0075803087 -0.06234665
0.036094937 -0.033809006 -0.0801477 -0.019622346 0.16723612 -0.1678686 -0.0073150783 0.124584526
0.16792424 -0.019374447 0.13692413 0.017244766 0.07621368 0.0726506 0.016167065 0.1391191
0.102555506 0.030375844 0.0660295 -0.07199211 0.102209985 0.06651356 0.09636087 0.031125836
0.12742911 -0.0961701 -0.0086553125 0.17830336 -0.11305057 0.039772563 -0.02364278 -0.0674841
0.09502084 0.067292206 0.046507657 -0.091211006 0.1672756 -0.16013236 0.028332679 0.17691861
0.036288466 -0.064507626 -0.040029667 0.016701551 0.06367085 -0.15532339 0.0678596 -0.060495872
0.0876341 -0.034002434 -0.13478917 -0.02572409 -0.08390351 0.03443562 -0.07491403 -0.057388183
-0.08764363 -0.13438883 -0.05429488 -0.15426528 -0.06969238 -0.069530815 0.030848261 0.050601695
-0.14214239 -0.11777723 -0.116537035 0.05319961 0.10237696 0.19466776 0.045132082 0.13739699
0.13891801 0.0019323769 0.11462085 -0.22524239 -0.0054428033 0.048154213 -0.059730016 -0.19295976
0.042397596 0.06744471 -0.06484948 0.108063675 0.044354092 0.058102116 0.17615542 0.039388556
0.01622321 0.0039272998 -0.00025716765 0.0385768 0.04993401 0.11849565 0.11229393 -0.07032862
-0.3089505 -0.17166536 -0.11846574 0.09839061 0.004953201 -0.1268652 -0.19252999 -0.053045426
-0.1344604 -0.09642798 -0.17848302 -0.25402164 -0.06131273 0.11546825 -0.064037725 0.091823995
-0.020331586 -0.045133818 0.12268379 0.0787954 -0.19291906 -0.049758255 0.0682792 -0.025441814

conv1.bias f4 [32]
00000000: 110b ec3c 0c1d a4bd 9a14 113d d7b3 0dbe
00000010: 96f1 943d d855 873d 0a26 9e3d f8d5 9fbb
00000020: c5ee 25bd 6841 ecbd b496 843d 7a66 203c
00000030: 34f5 303d d383 923c 828a 543d 6548 1bbc
00000040: 7a92 083e bc0b a2bc 49ba 9abd 5391 2abc
00000050: 5716 ce3d e287 433e 45e2 3fbc db6b 3cbe
00000060: eb78 893d 4262 0d3e 227f 6e3d 2829 653c
00000070: 1d71 9abd b10a 0d3e c749 883e 77b0 35bd
0.02881387 -0.08013353 0.035420038 -0.13838135 0.07272641 0.0660817 0.07722099 -0.004877802
-0.04051091 -0.11535913 0.06474057 0.009790057 0.043202594 0.017885124 0.051889904 -0.009477709
0.13337126 -0.019780986 -0.07555062 -0.010410625 0.10062855 0.19094804 -0.011711662 -0.18400519
0.067125164 0.13807014 0.058226712 0.013986863 -0.07541106 0.1377361 0.26618788 -0.044357743

conv2.weight f4 [64, 32, 5, 5]
00000000: c272 ae3d 6a87 ffbd 554a 93bd bf68 69ba
00000010: e1b8 de3d d739 043b 76c5 aabd b915 64bd
00000020: 8b70 a03c 107d 2dbd 4515 1fbd fb5c 08be
00000030: 272d 06bc 306b 28bd 44e6 8dbc 0c8a 903d
00000040: 5e7f 0b3c bb9e ea3b 8115 f03c 22b7 dcbd
00000050: bcf6 44bd 837e 39bc 5685 c4bb 8a55 bb3c
00000060: 43d6 553d 2c57 393d 0cb1 143e 3a7f c8bd
00000070: 8703 eebc a89f a03d b36a d0bd 22f0 da3d
00000080: 129e 4b3d 404f d13c d662 23be 0586 473c
00000090: 8a44 53be b7c5 ef3b 6004 4f3d 6dcd eebc
000000a0: fd69 cbbc 6ab3 0d3e ec92 1e3e 445d 2bbd
000000b0: cdfb ffbd 7e4a 253e dca2 a13d 0750 1e3d
000000c0: 28ef 9fbd 9ad7 9a3d 6253 133c ecf0 98bd
000000d0: 0bfc bf3c b188 bfbd 0d05 473d 0665 8bbd
000000e0: e052 df3d d41f afbc 896c acbd 33dc 563d
000000f0: c022 543d eae5 48bc a144 f43c 84e3 e1bd
00000100: 73c1 80be dac4 413d f202 b33d 911f 4bbd
00000110: 7349 523d c928 86bd e09d 1fbe e157 e13b
00000120: 30d6 98bd f247 f1bc 9c59 4ebe 87db 083e
00000130: 4690 fbbc f380 e13c 3916 73bc 46aa ea3d
00000140: 01b3 243e b244 093e 2973 c33d 1dc6 57bd
00000150: cc3b ddbc c055 40bd d516 67bd c62d 6fbd
00000160: 7acc a7bd 1039 8d3d 3307 a83d 9d40 d03d
00000170: 9f52 b9bd 9a67 e0bc d89d 583a c94e 4ebd
00000180: 45f2 b6bd d7a5 c9bd fd12 173e 3f69 6dbd
00000190: 2591 94bd a904 ed3d 4b04 8dbc 49aa 8ebd
000001a0: 11dd 8cbd 332b 253c 0db0 24bd 763a 1e3e
000001b0: b312 08bc 799e 053c b474 e8bc acb0 7dbd
000001c0: 9943 df3d 2866 4c3e 559b bdbd 7644 263d
000001d0: 5bf0 db3d 6745 ce3d 6485 8f3d 68c8 533e
000001e0: d4f4 0ebe 24eb 0a3d d13b 81bd 5484 d63d
000001f0: 6056 8bbb 7db2 9cbd e29c 173d 8917 803c
00000200: 86ee 5dbc e1ab 6b3d fdb8 013d 0ff4 e13a
00000210: d68e 63bc 0cb3 8bbc b331 c33d 4860 f8bc
00000220: 4100 0dbe 647a 2abe 76ce 0fbd 2f6a 403e
00000230: 85d2 aa3d 08d4 d73c e026 bf3b bce3 c73d
00000240: 12a7 c43a 99fa 263d 54c9 06be 332f c7bd
00000250: 1ed3 c23d 6387 a3bd ac9f cb3d 3861 2b3e
00000260: edcd 213d 3aea cf3d 5401 3a3c 3b8f f83c
00000270: 4b77 643d 8a89 83bc 7c29 51bc db6f 05be
00000280: ac24 063e 1a7c bebb d590 313a 45c1 edbd
00000290: 0494 3ebd 4901 5f3e a532 d6bd d0d1 7dbe
000002a0: 2e3e 5dbd 2bf4 b13e 5456 153e 09ca 02bb
000002b0: 3cbf 053d 39fd ad3d f2b0 b53d c016 ecbd
000002c0: 7686 833c 2443 c7bd cdf0 9f3c 12da 2a3e
000002d0: 002c 99bc 96e5 043e 9203 a5bd 3311 22bd
000002e0: 9620 51bc 66c6 abbd a0e6 6c3c 9789 ebbd
000002f0: 1167 033d d598 46bd 2cd1 7f3c 68b3 143d
00000300: 660c 793d 0fc8 233e 507c d0bc 2849 34be
00000310: eec6 97bd f7ff ecbd 1109 9b3c 0082 cabd
00000320: 15f7 abbd e857 7d3d 9c6d 0cbe 856a 4d3e
00000330: 9583 e5bd 3a79 923e df42 5b3d fee8 bbbd
00000340: 63b0 013d ab9b 05be 2f0c ba3d c8f9 97be
00000350: 54d0 55be c208 223d 572c c43d a12a eebd
00000360: 561d 23bc 04e8 dc3c 79c3 21be 541a 4bbe
00000370: 4ef7 e43d 3e1e 00be 6a12 98bd f98c 0c3d
00000380: f1b2 0c3e 609a 69be dda3 8dbd f4d4 31be
00000390: b00a aabd b5fc 003e 0bdb 033e 0152 f3bd
000003a0: 730d 6dbd ba73 c83c 9688 e13b 7a66 21be
000003b0: cf0c 95bd edbc 91bd da2a 2a3d 5080 90bc
000003c0: a893 86ba 97ca b93d de28 9cbd e632 733d
000003d0: 829f fabd a101 293e 2e2e 17be ef1c f0bc
000003e0: 3ba9 013d 8b72 cdbd 6c16 9b3c 2e1b 17bd
000003f0: 97fd 243d 0e54 983d 50e0 843d 6c2e 463d
0.08517982 -0.12477 -0.07191912 -0.0008903853 0.108751066 0.0020176077 -0.08338444 -0.05568478
0.019584915 -0.042355597 -0.038838644 -0.13316719 -0.008189476 -0.041117847 -0.017321713 0.0705758
0.008514253 0.0071600354 0.029307129 -0.10777117 -0.048086867 -0.011321667 -0.00599734 0.022867937
0.05220629 0.04524915 0.14520663 -0.097898915 -0.029054416 0.07842952 -0.10176601 0.10690333
0.049711294 0.025550485 -0.15955672 0.012177949 -0.20631614 0.0073172706 0.05054128 -0.029150689
-0.024830813 0.13837972 0.15485734 -0.041836992 -0.12499199 0.16141698 0.07892391 0.03865054
-0.07809287 0.07560654 0.008992048 -0.07467827 0.023435613 -0.09352244 0.0485888 -0.06806378
0.10904479 -0.021377482 -0.08419139 0.052456092 0.051790953 -0.012261847 0.029817881 -0.11029723
-0.2514759 0.047306873 0.08740796 -0.04959065 0.051339578 -0.06550748 -0.15587568 0.006876931
-0.07462728 -0.029453252 -0.20151371 0.13364993 -0.030708443 0.027527308 -0.014836841 0.11458258
0.1608391 0.13405111 0.095434494 -0.05267917 -0.027006052 -0.046956778 -0.05641826 -0.058393262
-0.08193298 0.068956494 0.08204498 0.10168574 -0.09048962 -0.027393151 0.00082632666 -0.050368104
-0.08932928 -0.098460846 0.14753337 -0.0579617 -0.072542466 0.115731545 -0.017213961 -0.06966073
-0.068781026 0.0100811 -0.040206958 0.15451989 -0.0083052395 0.008155459 -0.02837596 -0.061936066
0.10901565 0.19960845 -0.09258143 0.040592633 0.107392035 0.10071831 0.07007864 0.20681918
-0.13960582 0.033915654 -0.06310237 0.10474458 -0.00425224 -0.076512314 0.03701485 0.015636222
-0.013545638 0.057536963 0.03167056 0.0017238873 -0.013889035 -0.01705315 0.09530964 -0.030319348
-0.13769628 -0.16648251 -0.035109006 0.18790506 0.08340935 0.026346222 0.0058334917 0.09760234
0.0015003404 0.040766332 -0.13162738 -0.097257994 0.09512924 -0.07984807 0.09942564 0.16736305
0.039503027 0.10152097 0.011352856 0.030341735 0.05577783 -0.016056795 -0.012766238 -0.1303095
0.13099927 -0.005813134 0.0006773596 -0.11609129 -0.046527877 0.21777834 -0.104588784 -0.24787068
-0.054014377 0.34756598 0.14583713 -0.0019956848 0.03265308 0.08495564 0.0887164 -0.11527777
0.016055327 -0.09729603 0.019524002 0.1668475 -0.018697739 0.12978205 -0.080573216 -0.039567184
-0.012764117 -0.08387451 0.014459282 -0.115008526 0.032080714 -0.048485596 0.015613835 0.036303908
0.06080284 0.15994285 -0.025449902 -0.17606032 -0.0741099 -0.11572259 0.018925222 -0.09888077
-0.083967365 0.061851412 -0.13713688 0.20060165 -0.11206738 0.28608114 0.05353057 -0.09175299
0.031662356 -0.13047664 0.09084355 -0.29682755 -0.20880252 0.039559133 0.0957877 -0.116292246
-0.009955725 0.026966102 -0.15797223 -0.19834262 0.11179982 -0.12511536 -0.07425387 0.03431413
0.13740136 -0.22812796 -0.0691602 -0.17366391 -0.0830282 0.125964 0.12876527 -0.118808754
-0.057874154 0.024469245 0.0068827374 -0.15761748 -0.07277834 -0.07116113 0.041544773 -0.01763931
-0.0010267394 0.09071844 -0.07624982 0.059374712 -0.12237455 0.16504528 -0.1476371 -0.029310672
0.03165553 -0.10031613 0.01893159 -0.036891155 0.040280905 0.07437907 0.06488097 0.048384115

conv2.bias f4 [64]
00000000: 1605 143e a7fe 76bd 3484 05be 4ff6 873c
00000010: acdf 1c3d d337 bbbd fa06 f63b 65ec d73c
00000020: d32f fcbc f685 2d3c ef91 6a3d 001b 8b3d
00000030: ffe4 473d 3caa dbba 9a83 2cbe 81f0 ee3c
00000040: 9c65 13be a1c4 8d3e 6500 833e 909e 21bb
00000050: 93a9 4b3e 8614 b7bc 3e7c 9e3d f484 00be
00000060: f6ce cfbd aff2 b33d b64e 213e fca8 c33e
00000070: a782 23be 49ab 13be ca92 dcbd d50a dc3d
00000080: a32b 00be 4524 bb3c e749 8c3d fe88 cd3c
00000090: 5a9e 2dbd 98e6 0b3e 251f 903c 5d99 babd
000000a0: ca0c 38bd c515 62bd 231e cc3c 6cae 11be
000000b0: 1eff 23be d864 96bc fd3f 8e3d d3ac acbc
000000c0: a246 93bc 97ea eb3c 3ae4 113b fe04 14be
000000d0: 8e99 cbbd 628a 40bd 654e d0bd 8337 a63d
000000e0: 2100 63be dffe 443d 121b 1c3e de3b 3f3e
000000f0: 0ef2 3d3d f576 e5bd c821 633c d741 2a3e
0.14455065 -0.06030145 -0.13038713 0.016596941 0.038299248 -0.09141507 0.007508156 0.026357839
-0.030784523 0.010591021 0.05726808 0.06792259 0.048802372 -0.0016759108 -0.16847077 0.029167416
-0.1439423 0.27689078 0.25586239 -0.002466116 0.19888906 -0.022348654 0.07738541 -0.12550718
-0.101468965 0.087865226 0.15752682 0.38214862 -0.15967809 -0.14420809 -0.10770185 0.107442535
-0.12516646 0.022844443 0.06850033 0.025089737 -0.042387344 0.13662183 0.017592976 -0.09111283
-0.04493407 -0.055196542 0.024916714 -0.14226693 -0.16015288 -0.018358633 0.069457985 -0.021078503
-0.017978016 0.028798385 0.0022261278 -0.1445503 -0.099413976 -0.047006972 -0.101712026 0.08116057
-0.22168018 0.048094627 0.15244702 0.18675181 0.04637342 -0.1120433 0.013863035 0.16626678

conv3.weight f4 [128, 64, 3, 3]
00000000: aa1d 0a3d d4d5 a53d 2e42 9fbd 7dde 6e3e
00000010: 9631 efbd 3b32 923d a20f febc bfa6 58bd
00000020: cf82 ab3c 1883 f1bc b234 0dbd 4ea4 a53d
00000030: 5a87 423b ebe2 dc3d dbb0 89bd 8aa9 383e
00000040: 2d5e 89bb 900d b33d 0801 ac3d cf6b 103e
00000050: 35a2 003e fdc4 67bd 9fdb 813e cffe 76bd
00000060: 076e 063e 84cf cebd 5fbb 9e3d e206 c1bc
00000070: 57e6 083e 750c 85bd 6d09 1e3e 01cb 913c
00000080: d140 76bd dd99 f43d de90 39be fc1c 1bbe
00000090: 42ea 83bd d563 073d 51e2 1abc 7f76 ca3d
000000a0: 162d 3bbd c37b a43d cc4a 5bbc e774 06be
000000b0: e750 353c a48d 653e 2ff2 793e cec8 ffb9
000000c0: f6c1 90bd 1b16 61bd 45ca f33c dd0d 083e
000000d0: 12f3 ccbd df85 233d 4a26 37bc 2f20 2cbe
000000e0: 616b 9e3d 8bb1 543e ed1e 94ba c3be 873d
000000f0: aa10 393e 9ce3 babd 4e22 873d 80f4 153e
00000100: c1d8 16bd 4e51 e1bc 6e47 5fbb 1a56 57be
00000110: 213c 943e 2cbd 543d b369 ccbd 89a2 763d
00000120: 5f21 f6bd 0fe5 4f3d 073d a63d fd3f 843b
00000130: ccd3 d8bc fef0 d73d f677 2f3e 7793 7bbc
00000140: f401 c23d c0fb ae3b fb44 86bd f545 d9bd
00000150: 85ee 82bd 496d c6bd 0acd fbbd 8ad5 87bc
00000160: 21e6 8cbd a8af a4bd fd03 3bbe ce37 573d
00000170: 86dc 8dbd 9b26 1d3e c9f6 96bc 9c08 853c
00000180: 9dfd 08bd 0d88 4b3c 32c6 493d bff3 8a3e
00000190: 8afd b03d f6ec 0e3d c00c 78bd 2d07 1f3e
000001a0: 2ead 823d ea7d a13d 505e 0f3d 70bb 123d
000001b0: eb1a c7bd 046a 293e 4dbe 713b e86c c93d
000001c0: 2f54 31be e928 92bc 2c3e 5fbe de9c eb3d
000001d0: 2e18 a43d 2d49 f5bd 8013 05be 21b5 45bd
000001e0: 46cb 80bd 0547 ec3d e725 233e 78d8 94bd
000001f0: 07ac e73d d26f ae3b 1ed3 07bc 8b39 283e
00000200: 017b ed3d 335a 5fbd 054a 6abd c3fc 2d3e
00000210: 4c4a 2dbd cbce 51bd 2514 b9bc 63fa ccbd
00000220: e1fd 873b 0250 dd3d 2a58 e73c 0965 e8bc
00000230: 0009 343e c1a5 c73b ee06 d43d 0651 ddbc
00000240: 0da8 063e acc8 17bb 30bd 3b3e d01e 1a3d
00000250: fbf4 3cbd 99c1 bd3d 0418 c8bd fc98 05bc
00000260: f2fa eebd 5530 ffbd 811f cb3d 7193 9e3d
00000270: bca1 83bd 553d 9f3d 81c6 d0bd 63c5 3e3d
00000280: a227 1dbc e104 ad3d c499 13bd f5c1 283d
00000290: 27a2 753d dfec debc ab83 873d 46b7 fe3b
000002a0: 163d a8bd 36ca 0ebe 16f2 043d 3a4d 913d
000002b0: 72d6 59bd 1a74 b1bc 1f77 a73d e32e 043e
000002c0: 8d8a 2c3e 937e d7bc 0ead ef3d 2d57 d93d
000002d0: 15bf 2e3c d7e5 46bd aaeb 97bd 897a b43a
000002e0: ab42 823d 1296 783d bf82 1b3e 18bd 9e3d
000002f0: c315 7e3e 65e0 4f3d 1bff 9d3d 8ac2 f13c
00000300: 7801 c3bd 33fc 20be 7720 54bd d111 18be
00000310: da85 17be e578 b9bd 6e30 d4bd 1fcd 32be
00000320: c1e2 563e 5cb0 3ebe 13a4 2cbd 366e 803d
00000330: 1e84 623d 8236 9ebc eed5 5dbe ded0 a23d
00000340: 3dfa 863d 152b 9e3d 1074 db3d f56f e4bd
00000350: bf40 ff3c a2a5 d2bd 73cd 2dbe c7e1 3bbe
00000360: 963d 06bd c31d 1abe cf12 213d b4c9 373e
00000370: a6c4 0a3e 0a66 503e e1ae 4a3d 7de6 07bc
00000380: 4005 efbd b4fc 86be 6c3d 1f3e beb6 92bd
00000390: 5c06 d13d 6c15 823d 95f5 12bd 5613 453e
000003a0: a308 5a3d 07b0 dd3d 9a97 073e d1ec 253d
000003b0: 3d50 a8bd a742 1ebe 0b7e 03bd 8e84 0dbc
000003c0: f855 3fbe 3735 4d3c 0ec7 28bd fb54 433d
000003d0: 7332 9a3d 818c a9bd 8571 25bc 8ab9 9a3d
000003e0: 7e00 d83d 8f76 303d 6312 1b3e fe66 46be
000003f0: 1d1d 2cbe c998 2b3e 39e9 f43d ac2c 5fbd
0.033719696 0.08097425 -0.07776295 0.2332706 -0.1167938 0.07138487 -0.031013314 -0.052893396
0.020936398 -0.029481456 -0.034474082 0.08087979 0.0029682727 0.10785469 -0.06723186 0.18033424
-0.004192135 0.08742821 0.08398634 0.14103626 0.12561877 -0.056584347 0.2536287 -0.0603016
0.1312791 -0.10098174 0.07750582 -0.023562852 0.13369118 -0.064965166 0.15433283 0.017796995
-0.060120407 0.119434096 -0.18121669 -0.15147775 -0.064411655 0.03305419 -0.009453372 0.098858826
-0.045697294 0.08031418 -0.013384532 -0.13130532 0.011066652 0.22417313 0.24408792 -0.00048787
-0.07068245 -0.054952722 0.029759536 0.13286538 -0.100072995 0.03992259 -0.011178562 -0.16809152
0.07735325 0.20770852 -0.001130072 0.06628182 0.18072763 -0.09125444 0.0659834 0.1464405
-0.036827806 -0.02750459 -0.0034069675 -0.21028939 0.28952125 0.05193822 -0.09981098 0.0602136
-0.12018084 0.050755557 0.08117109 0.0040359483 -0.02646818 0.105440125 0.17135605 -0.015354983
0.09473029 0.0053400695 -0.06556126 -0.10609046 -0.0639315 -0.09688813 -0.122949675 -0.016581316
-0.06879831 -0.08041316 -0.1826324 0.052543454 -0.06926827 0.15346758 -0.018428223 0.016239457
-0.03344499 0.012422574 0.04926128 0.2713909 0.08642109 0.034893952 -0.060559034 0.15530081
0.06380688 0.07885344 0.035002053 0.035823286 -0.09721931 0.16544348 0.003688711 0.09835225
-0.1731727 -0.017841773 -0.2180106 0.115045294 0.080124244 -0.11976848 -0.1299572 -0.04826844
-0.06288771 0.115369834 0.15932427 -0.07267851 0.113121085 0.0053233886 -0.00829008 0.16428201
0.11595727 -0.05452938 -0.057199497 0.16990952 -0.042307183 -0.051222604 -0.022592613 -0.10008695
0.004150138 0.10806276 0.028240282 -0.02836849 0.17581558 0.0060927575 0.10352884 -0.027016174
0.13150044 -0.0023160381 0.18333888 0.03762704 -0.04613207 0.092654414 -0.097702056 -0.00815415
-0.11668958 -0.124603905 0.09918118 0.07742966 -0.06427333 0.0777537 -0.101941116 0.04657496
-0.009591969 0.08448196 -0.036035314 0.041200597 0.059969094 -0.027212558 0.066169105 0.0077733127
-0.08214776 -0.13944325 0.032457434 0.07094808 -0.053183027 -0.021661807 0.081770174 0.12908511
0.16849728 -0.026305472 0.117029294 0.106123306 0.010665675 -0.048559036 -0.07417996 0.0013769428
0.06360372 0.060689993 0.15186594 0.077509105 0.24812989 0.05075111 0.07714673 0.029511709
-0.095217645 -0.15721206 -0.051788773 -0.14850546 -0.14797154 -0.09056262 -0.103608 -0.1746106
0.20984937 -0.18621963 -0.04214866 0.06271021 0.055301778 -0.0193131 -0.21663639 0.079499945
0.06590698 0.07723061 0.107154965 -0.111541666 0.031158803 -0.10285498 -0.16972904 -0.18347846
-0.032773577 -0.15050416 0.039324578 0.17948037 0.13551578 0.20351425 0.049483184 -0.008294699
-0.11670923 -0.26364672 0.15550774 -0.071637616 0.10206291 0.06351742 -0.035878737 0.19245657
0.053230893 0.1082459 0.13241425 0.04050905 -0.08218429 -0.15455113 -0.032102626 -0.0086375605
-0.18685138 0.012524894 -0.04120546 0.047688466 0.07529154 -0.08278752 -0.010097866 0.0755492
0.10546969 0.043081816 0.15143733 -0.19375226 -0.16807981 0.16757502 0.11958546 -0.05448596

conv3.bias f4 [128]
00000000: b272 a43d 6a53 4d3d 028b ddbd 0d15 213d
00000010: edf4 e5bd 2b17 13be 4430 e1bd fe7d 073e
00000020: ea31 23be 3605 7dbd cc41 aebd 56d3 013e
00000030: 13d0 a6bd b273 d1bd 2fe2 03bd 6191 8bbc
00000040: 117a 9d3d d972 0d3e 7036 6f3d e771 fdbd
00000050: 4968 adbd 5ec8 95bd 8406 7f3c 5a16 903c
00000060: 413b 893d c7b9 a8bc c4fc cdbd c064 aabd
00000070: d778 d8bc e649 10be 1324 343e 9690 413a
00000080: ed93 c6bd 7eac 233d db36 c73d 0a21 7f3c
00000090: e55e 82bd e418 843e 3156 c7bd 9af2 44bd
000000a0: 5f2d ba3d 1ba2 3cbe 0bec 4b3c dae7 203b
000000b0: f834 d13b 976a 3abd 9c8b edbd c704 233e
000000c0: baf7 db3d e2dc 4cbd ecb7 613b db18 a3bc
000000d0: 65d8 83bd ee00 ec3c 6837 b13d a853 c23c
000000e0: af2f fcbd 3eeb 053e 36ff 0e3d 5148 db3c
000000f0: 2055 d13d 70d8 bb3a d1cc 073e 5a25 42be
00000100: 26bd bfb9 5334 353e def7 db3c 6165 0f3c
00000110: 2e0d afbd 1d59 89bb ed58 443e e3cb cb3c
00000120: 9a2a 4abd ea77 fabd 0567 553e ff73 4b3d
00000130: 5f05 223d 06f0 1f3d d94f 023d 25fd fdbd
00000140: a23d cbbb 307d 09bc 522c e73d e9f6 a33d
00000150: 7068 6fbc 9ea8 803d 0a43 a63d e9a6 49bb
00000160: 4ba0 39be fd6c 303e 2020 f7bd 6862 823d
00000170: e16a eebc e39c 3c3e b7e4 18be a60b c13d
00000180: d47d bfbd 6345 1d3d 911c 8a3d f886 cabd
00000190: 03f6 c33d 1810 f4bd c91b 0dbb 24b8 c2bd
000001a0: 4ce6 cabc 2946 9abd ce01 f53b 446d ccbc
000001b0: 1fe3 d63a ce69 833e 47eb e0bb 6152 02bc
000001c0: e99a 943d 973f fcbd 976a e5bd 4fd7 cdbd
000001d0: 9d26 823d a3c1 1cbd ba04 1cbc 043e 843c
000001e0: c3c6 ed3d d816 f53d 7fc2 153d dcf8 05bd
000001f0: 4fe3 a23d 0a22 01be 3c3b 323d 3f6c cf3d
0.08029689 0.050128378 -0.10817529 0.039326716 -0.112283565 -0.14364307 -0.10995534 0.13231656
-0.1593701 -0.061772548 -0.085086435 0.12678275 -0.08145156 -0.10227145 -0.032198127 -0.017037096
0.07689298 0.13813342 0.058401525 -0.12375241 -0.084671564 -0.07313608 0.015565518 0.017588783
0.06700755 -0.020596398 -0.10057977 -0.08319998 -0.026424808 -0.1409069 0.17591886 0.00073839107
-0.09696183 0.039959423 0.0972726 0.015571842 -0.06365756 0.2580024 -0.097332366 -0.048082925
0.09090685 -0.18421213 0.012446414 0.0024552257 0.006384488 -0.04551181 -0.11598894 0.15919791
0.107406095 -0.050015338 0.0034441901 -0.019909313 -0.06437758 0.028809037 0.08653146 0.023721531
-0.123137824 0.13078019 0.034911357 0.026767882 0.102213144 0.0014331471 0.13261725 -0.18959561
-0.00036571285 0.17695741 0.02685159 0.008752198 -0.08547436 -0.0041915313 0.19174547 0.024877494
-0.049357034 -0.12229903 0.2084008 0.04967117 0.039555904 0.039047264 0.03181443 -0.12401799
-0.0062024156 -0.008391663 0.1128775 0.08006079 -0.014612302 0.06282161 0.081182554 -0.0030769652
-0.18127553 0.17229076 -0.12066674 0.06366426 -0.029103698 0.18419223 -0.14930998 0.0942605
-0.09350172 0.03839625 0.0674373 -0.098890245 0.095684074 -0.11917132 -0.0021531454 -0.09507778
-0.024768017 -0.07532913 0.007477022 -0.024954446 0.0016394592 0.2566666 -0.0068639847 -0.007954211
0.07256109 -0.12316816 -0.11201971 -0.100508325 0.06355021 -0.038270604 -0.009522611 0.016142853
0.116101764 0.11967248 0.03656244 -0.032708034 0.07953512 -0.12610641 0.04351352 0.10128068

conv4.weight f4 [32, 128, 3, 3]
00000000: 509b 463d 86f4 053e 6884 603d ccab 68bc
00000010: dd2b 2bbe 4ea9 c8bd 75b5 f23d 640b 1fbe
00000020: cf49 323d 896b ebbc 248c bcbd 82a8 ac3c
00000030: 2a9b 3bbd b831 933c 73c8 68be d566 20be
00000040: a4e6 7dbd 1ba0 033d f79b b3bd 9a00 23bd
00000050: 157c 1a3c fbbc e03d 2497 20be c2ef 86bc
00000060: 65b3 c33b 3456 7c3d 2e37 803d 50a5 b43c
00000070: 3f51 8fbd 3c34 993d fa95 2a3e ec2f babd
00000080: bce8 ce3d 7568 9e3d ea32 f03d 1422 b53d
00000090: 0a72 803d cea6 32be 97f3 c83d 4e80 91bd
000000a0: c190 493e 74ba 163e 65ee 233d 1362 df3d
000000b0: f45f ca3d ef69 d83d 9a1b 563d 5365 00be
000000c0: 128e 5f3e 4704 e43c db77 afbd 2f23 bf3d
000000d0: 336f 6d3d 6621 1bbe 807e 8ebd 716c f13d
000000e0: 06d5 b33d d389 39bd 3ae7 de3d 824e 403d
000000f0: 389f 2fbd 5a97 033d 8e5d 3cbe 2c95 53bd
00000100: 1adc 563d bef8 1fbd 63b9 95bd bdc8 a33d
00000110: a044 a03d 28c5 823d 984b 123c 42b1 15bc
00000120: 74aa 6ebd 25e2 873d 2c7b e13d a8db 8f3d
00000130: 1dd6 e0bd 1e1a 90bc d3c3 3e3d c469 4cbd
00000140: 1807 a73d 99bf eabc 7cac 14bb d0ff cdbd
00000150: 6be3 6f3d 1a6c 53bc 8c57 a8bd 7b93 94bd
00000160: 1e21 593d 75f4 f9bd 9251 fbbd e064 9cbd
00000170: 32db 76bc 0117 76be f343 073d 7d17 16bd
00000180: 8e95 2cbe fdf1 45be fce6 c7bd 2528 6b3c
00000190: 1d5f d9bd 0304 c3bd 9d67 773b ca00 a4bd
000001a0: dc5b be3d f821 e53d a87b 843d 18ce ce3d
000001b0: 3642 0ebe 0c7e 88be 0637 dabc e168 87bc
000001c0: c6ca 0abd c4ae 9a3e 0b6b 29be e123 203e
000001d0: 4336 2c3d 2aad ca3d 98a2 c5bd 2ce8 debd
000001e0: 4768 a43d e40f f23d 3939 b9bd 7d50 3b3d
000001f0: 476f e43c 738d 923d b46f 9abd 2287 f5bd
00000200: 4446 cabd 9f0a 36bd 1623 6e3c df44 18bd
00000210: 0195 663c 54b2 28be e62a b2bd 0302 9fba
00000220: e599 47bc 763f a33d e687 a0bd 0fef ecbb
00000230: ce7e ddbc 6b9e 803c d78b 15be 90e1 61bd
00000240: a2dd 1fbb f9df bfbd 017f 59bb 7b92 653c
00000250: 7f57 21be 8c09 f93d 655f 263e 6372 debc
00000260: 8b1f e9bd baff ccbc 5e81 b7bc cf7d b23c
00000270: c95b 95bd df9d 89bd 4198 7abd 7189 993d
00000280: 7a2e f53d 1a50 a1bc 53f1 d3bd 2bdd 0ebe
00000290: a290 7dbd 33fc 8f3d e2a1 39bd 8330 88bc
000002a0: 7a0d e9bd 780e 6fbc f7b3 25bc 1ba2 8ebd
000002b0: 8c36 b7bc aca7 65bc 81e2 bcbd da97 80bd
000002c0: f31a 71be f880 e93c 7d10 9abd dca5 f53a
000002d0: 2a27 41bd f146 1f3e 545d db3d f20b e23d
000002e0: a009 303d 71da 003e 01c8 15bd 65aa 60ba
000002f0: bd07 f33b 8374 92bc ae99 5a3e 8179 7e3d
00000300: 599d 4c3d 5d6b 403e fae0 103e fc2f 86bd
00000310: 0f1d 063e 8566 b7bb 3f66 5d3c 7205 5d3d
00000320: 0828 e23c 9119 ffbc 4ebf 973d 2d0a 10be
00000330: 9707 3f3d ea77 8f3d 4446 d53d 58f7 a23c
00000340: dd72 7e3d db72 c1bd 61c5 123e 0a95 e5bd
00000350: a407 b6bd 9b8d c0bd f9cf 123e 7053 e4bc
00000360: 2dca 97bd eb1a 333e 6017 073e 5955 5f3c
00000370: 380a 1bbd 729a 843d 43cd 063e a7a2 143e
00000380: cbdf 183e 0a11 783d 2c74 3f3d 7473 d3bc
00000390: daae 823d 1afc 15be 4622 b43d e182 943d
000003a0: 623c 6e3d 9e91 193e a523 863e 979b 3b3e
000003b0: 8e71 adbc 526f d13d 0499 e43c 516a 38be
000003c0: fb92 093d 3d5d 1e3c ff5e 8dbb 1a78 44be
000003d0: f299 2cbe a365 773d f23c 103c e6d7 6bbd
000003e0: ea3b 57bd 898f 183e 8af9 e83d 26d0 35bd
000003f0: a716 213d 853a 2c3e cd2c 003b ae57 023e
0.04848796 0.1308156 0.054813772 -0.014201116 -0.16715951 -0.09797917 0.118510164 -0.15531689
0.04352742 -0.0287378 -0.09206417 0.021076445 -0.045802273 0.017968044 -0.22732715 -0.15664227
-0.061987534 0.03213511 -0.08769982 -0.039795496 0.0094289975 0.10973545 -0.15682656 -0.016471747
0.005972313 0.061605647 0.06260525 0.022051483 -0.06997918 0.07480666 0.16658774 -0.090911716
0.10102984 0.07734767 0.11728461 0.088443905 0.06271751 -0.17446443 0.09812086 -0.0710455
0.19684125 0.14719564 0.040022273 0.10907378 0.09881583 0.1056708 0.052272417 -0.12538652
0.2183154 0.02783407 -0.085677825 0.093328826 0.057967376 -0.15149459 -0.06957722 0.11788262
0.08780865 -0.045297455 0.10883947 0.04694987 -0.042876452 0.032126762 -0.18395063 -0.051655933
0.052456 -0.03905558 -0.0731075 0.07997272 0.07825589 0.06385261 0.008929156 -0.0091365
-0.058268026 0.066349305 0.11009821 0.07024318 -0.10978339 -0.017590579 0.04657347 -0.049905553
0.0815565 -0.028655814 -0.0022685817 -0.10058558 0.058566492 -0.012904191 -0.08219823 -0.07254692
0.0530101 -0.122048296 -0.12271418 -0.07636428 -0.015066909 -0.24032213 0.033023786 -0.036643494
-0.16853926 -0.19330592 -0.09760854 0.014352833 -0.106138445 -0.095222495 0.0037750967 -0.08007963
0.092948645 0.1118812 0.06468898 0.10097903 -0.13892445 -0.26658666 -0.026637565 -0.016529502
-0.033884786 0.3021146 -0.1654474 0.15638687 0.042043936 0.0989631 -0.09650153 -0.10884127
0.08027702 0.11819437 -0.090441175 0.045731056 0.027885092 0.071558855 -0.07540837 -0.11988665
-0.09876683 -0.044443723 0.014534732 -0.037175056 0.014073611 -0.16474277 -0.086995885 -0.0012131337
-0.012182687 0.079710886 -0.078384206 -0.0072306464 -0.027038004 0.01570054 -0.14604126 -0.055146754
-0.0024393578 -0.09368891 -0.0033187272 0.014011974 -0.15756033 0.12160024 0.16247328 -0.027154153
-0.113829695 -0.025024284 -0.022400554 0.021788506 -0.07292897 -0.06719565 -0.061180357 0.07496918
0.11971755 -0.019691516 -0.10348763 -0.13951556 -0.06190551 0.07030525 -0.0453204 -0.016624695
-0.113795236 -0.014590852 -0.010113708 -0.06964513 -0.022364877 -0.014017027 -0.0922289 -0.062789634
-0.23545437 0.02850388 -0.07522676 0.0018741447 -0.04715649 0.15554406 0.1071116 0.11037435
0.04297793 0.12583329 -0.03656769 -0.00085703126 0.007416694 -0.017877823 0.21347687 0.062127594
0.049954746 0.18790956 0.14148322 -0.06552121 0.13097022 -0.005596938 0.013513147 0.05396027
0.027606979 -0.03114012 0.07409535 -0.14066382 0.046638098 0.07005294 0.10413793 0.019893333
0.06212126 -0.09445735 0.14333107 -0.112100676 -0.08888176 -0.09402009 0.14337148 -0.027871817
-0.07411609 0.17490737 0.1319251 0.013631188 -0.037851542 0.064747706 0.13164239 0.14515172
0.1492912 0.060563125 0.04674165 -0.025811888 0.063810065 -0.1464695 0.087956 0.07251526
0.058163054 0.14996955 0.2619907 0.18321072 -0.021172311 0.10226311 0.027904995 -0.18009306
0.033587437 0.009665784 -0.004314303 -0.1918644 -0.168556 0.060399663 0.008803593 -0.057578944
-0.052547373 0.14898504 0.11375721 -0.04438796 0.039328244 0.16819198 0.0019557953 0.1272876

conv4.bias f4 [32]
00000000: 8ee7 e8bc 86fd 113d a71d 2fbe 0e57 4f3d
00000010: 0607 40bc 314e 083d 49c3 94bc 35d1 35be
00000020: 3adf 973d 7bb3 a6bc e531 78bd 23ee f9b9
00000030: aeac d43c 8557 51bd a36e 21be 7ecc 53be
00000040: 5c76 34bd 0e4a bfbd 6ed8 083e 4427 cfbc
00000050: edbb 32bd ec8c 9f3d 3853 313e 0b47 4ebd
00000060: 32de 30bd b069 2e3e 495f 9e3d 7512 803e
00000070: 28f0 ba3d 8885 153c 86b6 aa3d 1440 9bbd
-0.028430726 0.03564217 -0.17101155 0.05062013 -0.0117204245 0.033277694 -0.018159525 -0.17755587
0.07415624 -0.020349255 -0.060594458 -0.00047670407 0.025961246 -0.051108856 -0.15764861 -0.20683476
-0.04405819 -0.09340297 0.13363811 -0.025287278 -0.04363625 0.077905506 0.17316902 -0.05036072
-0.043180652 0.17032504 0.07733018 0.25014082 0.091278374 0.009126075 0.08335595 -0.07580581

conv5.weight f4 [8, 32, 3, 3]
00000000: 4da1 1ebd 925a ec3c 8d24 afbd 1abc e5bc
00000010: cfcf 8a3d 0586 3c3c 8761 a03d a784 00be
00000020: d7b2 f4bd 0272 29bc 04e7 a4bd acfe eabc
00000030: 663f 74be 2714 4bbe e91e c6bc 2db6 84bd
00000040: 9dbb 3bbe fde9 643d 32a9 0f3d 9848 143e
00000050: f80c 94bb a012 933c 6a48 003d 19e5 75bd
00000060: 9c04 ecbd 1268 acbc 59de 0f3e e820 843d
00000070: 34fe 00bd 8430 bd3d 54e9 303e 2e47 23bd
00000080: 1e5f 34bd a87d a83b ba50 393d 705c babd
00000090: da9d 3abe 74eb 843d 3cd7 a4bd 8490 703d
000000a0: 1669 4f3d 2338 903d 8528 b63c e508 2cbd
000000b0: b1ae c9bd d149 9c3d ecb8 95bd f411 4c3d
000000c0: bd08 b23b 9aa9 f9bc 8aef d4bc 7d54 173d
000000d0: bd89 463e c20c 093e a06e 203d 6f8a 5b3d
000000e0: 2368 b2bc f3cf a23d 43f1 153e baad e9bb
000000f0: 1a51 2abe 89de e8bc 7d6c c23d b8d3 f63c
00000100: 5f21 0c3e a697 1ebd 7bcb 7e3d f9ce 963d
00000110: 3c37 903d 1f63 a83a 1aa8 f8bd 8b0e de3d
00000120: 7475 403e cb94 72bc 0dad 20be 4433 12bb
00000130: 9328 a93d 2cfa 1f3e eb8b dcbd eeed 93bc
00000140: ac67 a43d 0729 043e 3787 dfbd 4d1d d23d
00000150: 188b a73c 1155 c83d d844 133d a680 e3bd
00000160: 461c e7bd f3f2 91bc ee7c d6bb 0ad5 ca3d
00000170: 9fc1 23bd 5ceb ef3c de24 afbd 2405 913e
00000180: 78bc 713d 28d8 bf3b 6012 10bd 313b 0b3e
00000190: 5582 babd 35f2 c63c b063 d43b 0876 283e
000001a0: 9b5e 383e 8dd7 4e3e 6314 733d 2ee8 0b3e
000001b0: 94f1 48bd e758 41be 0820 cfbc ed89 e13c
000001c0: 03be a43d 8584 8ebc b28b 74bd ed2a abbd
000001d0: a26b 4f3d 06c6 ef3c c961 163d 48ff 833d
000001e0: 29b4 433b 23bb 3f3e 5d89 233c 1a02 f03b
000001f0: 8981 b33c b874 a73d aa9f 62be 9df5 783d
00000200: 3fad 10bd 62af 123e 29ee 9e3c fcfa 7dbd
00000210: cc28 463d 9d9f 233c 4b76 a63d ad3d b3bc
00000220: 0f63 c5bd 4725 23bc 87d7 5ebd ceea 85bc
00000230: a9c7 ec3d cc93 8abd f9e8 3fbd 8a64 0bbd
00000240: 2d8f 0abe 1f63 d03c 8625 21bd 9617 58be
00000250: 4ed2 41bd a367 00be 7d4b 45bc 2663 0f3e
00000260: 178d 813d 354f 71bd 2248 21be bdb2 91bb
00000270: b31f efbd 8744 d6bb 17ba 4c3e bf6c 23be
00000280: a338 bf3c a100 9ebd ff5b 983d ea02 083d
00000290: 89ab 37bd 3e62 2a3d 057a d7bd 0d83 14bd
000002a0: 5c89 173e 209f edbc 3269 03bd f298 73be
000002b0: f5c4 0c3e 7450 3a3d 3e22 e53d 31fd 05bd
000002c0: b8c6 583d b1e4 03bd 19d8 323e 7a77 82bd
000002d0: 654f a83d 5907 343e db1e 063c d31b a23d
000002e0: 6d5e 163e 933a 7e3e 3950 173e 5c12 363e
000002f0: 1f14 0e3e 2336 a73d cf0d 33be f532 c63c
00000300: d417 a6bd 0c8b 85bd 1076 82bc f250 54be
00000310: efc7 66bd 4d80 163e 6e8c 183e 781a 8ebd
00000320: 896d 4e3d bd57 dd3d a402 a33d be01 c63d
00000330: 9de4 6ebd c66e 193e 432b d1bd 66f6 93bd
00000340: 353d cabb 3790 733c 2b0b 67bc 9c22 793d
00000350: 8ddb 22be 2405 10be 815e 693d 26d2 f6bd
00000360: 0e21 83bd f498 153e d8a7 bc3c 43a8 e9bd
00000370: d9c4 bcbd b329 62bd daa3 b43c ec29 b83a
00000380: b87e a33e 98a5 2f3d e3b8 b4bd b07b 463d
00000390: dcbe 733e f50f 573e f5ea 86bb 984f 16be
000003a0: ff36 ecbd 7317 5dbe fd00 01bd b59e 0e3e
000003b0: c69d 9dbd f928 b83d e600 66bd cba1 89bd
000003c0: 68f5 d4bd 176b cebd d3b0 e0bd 5dd6 3c3e
000003d0: 86ad b63d 26f5 613e 3b22 cd3a 2a14 af3c
000003e0: cddb c53d 39a0 edbd 48d0 30bc 6727 593d
000003f0: b012 51bd 8020 5e3d e934 063e 4765 bf3d
-0.038728047 0.028851781 -0.085518934 -0.028043795 0.067779176 0.011506562 0.07831102 -0.12550603
-0.119481735 -0.010342123 -0.08051875 -0.02868589 -0.2385231 -0.19831906 -0.024184661 -0.0648006
-0.18333288 0.05588721 0.035073467 0.14480817 -0.0045181476 0.017953217 0.03131906 -0.060032938
-0.11524317 -0.021045718 0.14049663 0.06451589 -0.031492427 0.09237769 0.17276508 -0.039862804
-0.044036023 0.0051419325 0.045243002 -0.09099662 -0.18224278 0.064902216 -0.08048865 0.05873157
0.050637327 0.07041957 0.022236118 -0.04200067 -0.09847773 0.07631267 -0.07310662 0.04982181
0.0054331706 -0.03047638 -0.025993127 0.03694581 0.1938848 0.13383773 0.039168 0.053598817
-0.021778172 0.079498194 0.14642815 -0.0071313055 -0.166325 -0.028426426 0.09493349 0.030130252
0.13684605 -0.038718842 0.062205773 0.07363696 0.07041785 0.0012846923 -0.12141438 0.108426176
0.18794805 -0.014805983 -0.15691014 -0.0022308389 0.08259692 0.15622777 -0.10768875 -0.01805779
0.08027586 0.12906276 -0.10914462 0.10259495 0.020452067 0.0978185 0.035954326 -0.11108522
-0.112846896 -0.017816043 -0.0065456545 0.09903915 -0.039979573 0.029287033 -0.08551954 0.28324234
0.05901763 0.0058546253 -0.035173774 0.13596798 -0.0910689 0.024285415 0.0064816102 0.16451275
0.18004839 0.20199414 0.059345614 0.13662788 -0.04905851 -0.1888157 -0.025283828 0.027531588
0.08044054 -0.017397175 -0.059703536 -0.08357797 0.050639756 0.02926923 0.03671435 0.064451754
0.0029862022 0.1872373 0.00998148 0.0073244693 0.021912353 0.08176559 -0.2213122 0.06078111
-0.03532147 0.14324716 0.019400673 -0.062006935 0.04837875 0.009986785 0.08128031 -0.021879995
-0.096380346 -0.009957618 -0.05440476 -0.016347315 0.1156152 -0.06766471 -0.04685304 -0.03403143
-0.1353118 0.02543789 -0.039342426 -0.21102747 -0.047319703 -0.12539534 -0.012041924 0.14002666
0.06325739 -0.05891343 -0.15750173 -0.004446356 -0.11675968 -0.006538931 0.19992863 -0.15959452
0.023342436 -0.07714964 0.07439422 0.033205904 -0.044841323 0.041597597 -0.1052132 -0.036257792
0.14798492 -0.02900654 -0.032082744 -0.23788813 0.13747008 0.045486882 0.11188172 -0.032712165
0.052923888 -0.03220052 0.17465247 -0.063704446 0.08218268 0.17580928 0.008186067 0.07915463
0.14684458 0.24827032 0.14776696 0.17780441 0.13874863 0.08164623 -0.17485736 0.02419422
-0.081100136 -0.06520662 -0.015925437 -0.20734003 -0.056343015 0.1469738 0.1489732 -0.06938642
0.05039743 0.108077504 0.07959488 0.09668301 -0.05832349 0.14983663 -0.1021333 -0.07224731
-0.006171847 0.0148659265 -0.014101784 0.06082402 -0.15904064 -0.14064461 0.05697489 -0.120518014
-0.06402789 0.14609128 0.023029253 -0.114090465 -0.09217233 -0.05521555 0.022050787 0.001405058
0.31932616 0.042882532 -0.08824327 0.0484578 0.23803276 0.21002181 -0.0041173645 -0.146788
-0.11533927 -0.21590976 -0.031495083 0.1392773 -0.076961085 0.0899219 -0.0561532 -0.06720313
-0.1039837 -0.100790195 -0.109712265 0.18441148 0.08919816 0.22066173 0.001565046 0.02137192
0.09661064 -0.11602826 -0.010791846 0.053016093 -0.051043212 0.054230213 0.13106121 0.09345489

conv5.bias f4 [8]
00000000: ccca 543e 363b 53be 2859 253e 4850 d73c
00000010: bbfa 813d 16bf 003d 8faf 68bb e9b8 2abd
0.20780486 -0.20628056 0.16147292 0.026283398 0.06346651 0.031432234 -0.0035505032 -0.04168025

conv6.weight f4 [2, 8, 3, 3]
00000000: a627 d73d bf05 193e 9658 b7bc c463 89bd
00000010: 674b a63c d9b7 9a3d a412 3dbd c0f8 91bd
00000020: 0fd9 4dbd 9bf5 683b 885a 1a3e 4773 38bd
00000030: b48b c73c cc16 613d 978a 9b3d eb9a 423c
00000040: b5f5 41bd 6ee8 d4bd c218 f6b9 5003 21be
00000050: fc5d 88be 3f83 46bc 0cb9 903d 407a 343c
00000060: 401e d1bd b961 773d 15b4 6d3e 63d7 45bd
00000070: c580 4ebe d232 5fbc b04e 8bbc afa3 cfbc
00000080: 6fc5 8bbd 1dc3 67bd ac77 0bbe 7e76 21be
00000090: a5e5 353e 5f64 ff3c 35fa a83d 4344 01be
000000a0: d940 36be b480 40be 573c a2bc 9ece 3b3e
000000b0: 8837 acbd df81 bbbd 1009 483e b267 063e
000000c0: c91d 473e ffcc 963d 4708 c5bc bad2 a3bd
000000d0: 9f2b a8bd 1a66 063e 2c72 ec3d fde7 8dbd
000000e0: bf30 573d 7755 033e 7383 c73d 884c ba3d
000000f0: c3bb dfba 9d50 14be 5527 96bc 00d2 a3bd
00000100: 587b 13be 3288 a1bd 3c8a e73c 5aff 8ebc
00000110: 3524 3dbe dde9 88be 8bdf 253d 2510 74bd
00000120: 7c6a d53d 303d 413d df85 3a3e fdc8 bbbd
00000130: bf7f 9b3d 28ff af3c 71d9 353e 6233 fd3d
00000140: 9edb 893d d1b0 60bd 19a1 1bbd c8ae 993d
00000150: ef51 8a3d b3d8 adbd d2e7 c9bd 9b8a ddbb
00000160: d9b4 803d 51bb 73be e974 383e 977d 71bc
00000170: 5a94 cbbc f07a cfbd 103f 5c3d 5382 89bd
00000180: c688 9bbd 22b2 c4bb 3a30 043d 3e5e 6cbd
00000190: c10f 213d da99 173c a6ac 953d 4e90 8abc
000001a0: 32b6 e8bc 0b3c 113c 9c69 173e 48ec 5dbd
000001b0: c401 973d 1e64 d33c bd3d 093e 8893 af3d
000001c0: 44bd 84bd 1ee6 f4bc 60de 373e 39ed 55bd
000001d0: 49f0 d6bc 8288 e6bd 23e2 60bc 449e b2bd
000001e0: c04f 1d3e a70d c63d 62c5 8b3d 94f5 5cbd
000001f0: fb6d 12bd 5d9f b83d d8b0 91be 11b7 373d
00000200: 4a2d 68bd 5bde 06be 3ac1 233e 7a88 4a3d
00000210: 1c1c cb3d 8530 c8bd 13d5 dcbd 3f23 0bbe
00000220: 2b3d 56bc a10f 86bd 2439 ea3c 675b d5bd
00000230: e23b 1f3e 39d5 003e a597 f1bd 4eb9 2c3c
0.10505609 0.14943598 -0.022381108 -0.06708482 0.020299627 0.075545974 -0.046160355 -0.071275234
-0.05025583 0.0035546783 0.15073597 -0.045031812 0.024358608 0.05495338 0.07594793 0.011877756
-0.047353465 -0.10395895 -0.00046939222 -0.1572392 -0.26634204 -0.012116252 0.07066545 0.011015475
-0.10210848 0.06039593 0.23213227 -0.048301112 -0.20166309 -0.013622956 -0.017005295 -0.025346605
-0.06824767 -0.05658256 -0.1361987 -0.15767857 0.17763384 0.03117579 0.08250848 -0.12623696
-0.17798175 -0.18799096 -0.019804163 0.18340537 -0.08409029 -0.0915563 0.19534707 0.13125494
0.19444956 0.07363319 -0.024051799 -0.07999177 -0.08211445 0.13124886 0.11545214 -0.06929014
0.052536722 0.12825571 0.09741869 0.090966284 -0.0017069507 -0.14483877 -0.018329302 -0.07999039
-0.1440252 -0.07887305 0.028264157 -0.017455745 -0.18470843 -0.26740924 0.04049639 -0.05958571
0.10420701 0.047177494 0.1821513 -0.09169195 0.07592725 0.021483973 0.17758729 0.12363316
0.06731342 -0.054856125 -0.03799543 0.0750404 0.06753909 -0.08488598 -0.09858669 -0.006760908
0.06284494 -0.23801924 0.18013348 -0.014739416 -0.024851013 -0.1013087 0.05377108 -0.067143105
-0.07594447 -0.0060026804 0.032272555 -0.057707064 0.039321665 0.00925299 0.07308321 -0.016914513
-0.02840719 0.008864413 0.1478638 -0.054180413 0.07373384 0.025804576 0.13402458 0.08573061
-0.06481412 -0.029894885 0.17955923 -0.052228186 -0.026237624 -0.112565055 -0.01372579 -0.08721593
0.15362453 0.09670573 0.06824757 -0.05394514 -0.035749417 0.09014771 -0.28455234 0.04485232
-0.056683816 -0.1317076 0.15991679 0.04944656 0.09917471 -0.09774879 -0.10782828 -0.13587664
-0.013076107 -0.0654595 0.0285917 -0.10417824 0.15550187 0.12581338 -0.11796502 0.010542227

conv6.bias f4 [2]
00000000: 8a99 de3d f8f1 133d
0.10869129 0.03611943

fc1.weight f4 [64, 200]
00000000: 0772 163e 37e7 3ebd 0276 a63b 6e6d 343d
00000010: ec32 f53d 6189 fabc 0b54 40bd 744a 12bd
00000020: 1c8c 0fbd 1654 093e d392 a63d ddc7 c1bd
00000030: 23c1 02be ff05 11be 8f5a 2f3e 0b5a 00be
00000040: 887d 6dbc 35f8 0d3e 892b 8cbc c7ea a4bd
00000050: 31ed ae3d 6513 703d 5e24 4ebb 9fac cf3c
00000060: 31f2 c83d 0a6a d03d 3e71 06be 46c0 ce3c
00000070: ca8d 953d fdef 86bc b205 59bd f063 e43c
00000080: edc1 413c 5034 33be 5a02 9b3d 950f 16be
00000090: f084 763d 8508 0e3d 347c 4bbe 6828 cabc
000000a0: 4769 ed3d 1565 4fba e3b9 6abe fb8f 783c
000000b0: b41c 143e 6118 5bbd 8234 023e fafd 343e
000000c0: 90e8 88bd e61b d5bc 276e 503e c626 4fbc
000000d0: 7664 b53c 103e 433e 667a 153e 9278 cb3d
000000e0: f436 2ebd d41d 903d f369 32be 43df e13c
000000f0: 51ff 2cbd 9c4d 133d 3592 8b3c 2761 693d
00000100: 3341 ea3c d7d7 dfba 98f4 863d 512e 2a3d
00000110: 7197 9bbc 8dd8 6f3d 6e19 263d b81f b63b
00000120: 79f9 133d 2031 25be 653d fb3d e057 8dba
00000130: cdd5 7bbd 73ac a43d 2370 29be 4934 923d
00000140: eff1 7c3d 1754 063e c0b2 29bd ee8a 85bd
00000150: 9cb5 8fbd 3bfb 90bc 39a9 f83d 14f7 0abe
00000160: 4943 b13d 5b76 943d ffb1 fd3d 6d9c e5bd
00000170: 33f4 9b3d c997 263e 6f74 913d 5059 5abd
00000180: 0d39 4cbd 45f0 60bd 2e02 763e 1fe9 073e
00000190: 4e42 763d 5d68 4d3c 492d d3bd 61ab 163c
000001a0: 4598 843d d457 6fbd 7296 29be eac2 43be
000001b0: 6f73 b4bd 92c6 bebd d6fe 313e 642f b73c
000001c0: f45c 21be ba43 273e cafc 69bb 95ab 0d3e
000001d0: 9955 803b 3d30 bfbd ad28 ad3d 4b1a 59be
000001e0: 0237 54bd eb3f 28bd 199d 3f3d 0447 ddbd
000001f0: e713 6ebe 6c29 0dbd 726b 4ebe e7d0 fabd
00000200: d711 823a c879 05be c34b 4a3d 25d6 0fba
00000210: 7ea7 143e 9679 a33d 401d b73d 0900 febd
00000220: 1eef a93d 2cf8 03be 341d 55bd c470 5bbd
00000230: 5c13 29be 1d3e 07bd 7cf1 463d a273 da3d
00000240: 6ce2 5fbe 4624 e33d c9df 96bd a7b0 09be
00000250: 3f07 47bc 8c2e c3bc 49bd 063e 849a b63c
00000260: 8814 d03d c42c 58bd 7164 2d3e 1bd6 203e
00000270: 0684 90bd 9483 debd 0529 933a 70e0 55bd
00000280: b464 1fbe 9c58 f4bc 0517 b8bc c6c9 34b9
00000290: 35b8 383d a30d 24be 92ea bb3d 24f7 4e3d
000002a0: 880c 0e3e b596 143d 737e 733d 44a8 2bbe
000002b0: 9669 6abc 7914 cc3b 2e77 d4ba debc db3d
000002c0: a58d 0abe e8e4 55bd 2e75 fa3c 3a7f 5d3d
000002d0: 82d3 bfbc 9b42 cf3d a3e5 4f3c 578c 07be
000002e0: 1606 453d fce0 2ebc a0c8 96bb a8a9 2e3d
000002f0: 89da ba3d e369 89bd 5948 c6bd ae9e 10be
00000300: 5dbd e9bc 3b14 933d ccd7 e33c 4178 a93d
00000310: 545f edbd 0222 c63c faca 323d aa84 083d
00000320: d980 47be 6f73 a23d a78d 11bd d045 febc
00000330: c539 bf3c 0018 bbbc 32a2 e9bd 8bcd 7bbd
00000340: 117b 35be 57f7 babb bac7 9dbd e762 d13d
00000350: 8da7 583e f574 273d 1028 853d d249 b73b
00000360: 53d2 38be 571d 22bd a938 903d acfb ce3d
00000370: 0c86 a33d 0c5d 2d3e a672 1cbd 79e6 333a
00000380: 3fea 913d 24fc f5bd 90b5 a0bc e69d 903d
00000390: b213 93bc c4d4 763e 2846 35bd 9124 c43d
000003a0: d946 30be 55b1 45bd e5e8 ba3d 14a4 b93c
000003b0: 4517 00be 8164 f0bd 9e52 58bd da23 b4bd
000003c0: b0a4 72bd 5c35 35be 3456 3abe 0556 1c3e
000003d0: 02f0 1ebe 4272 1f3e d718 c5bc 4580 0ebe
000003e0: 080f eebd dc1f 7b3c c1f3 e93d 2e83 6fbc
000003f0: 757e 883d 51e9 8ebd b59c 2c3e efb7 5e3d
0.14691935 -0.046607222 0.0050799856 0.044049673 0.11972603 -0.030583085 -0.04695515 -0.035715535
-0.035045728 0.13410982 0.08133473 -0.09461949 -0.12768988 -0.14162444 0.17124389 -0.12534349
-0.014495261 0.13864215 -0.017110603 -0.08052593 0.085413344 0.058612246 -0.0031454782 0.025350867
0.09811819 0.10176475 -0.13129136 0.025238167 0.07302435 -0.016471857 -0.052983947 0.027879685
0.011826021 -0.17500424 0.07568808 -0.14654382 0.060185373 0.034676094 -0.19871598 -0.02467747
0.11592346 -0.0007911486 -0.22922473 0.015171046 0.14464074 -0.053490046 0.12715343 0.1767501
-0.06684983 -0.02601428 0.2035452 -0.012643522 0.02214263 0.19066644 0.14597473 0.09935106
-0.042532876 0.07036939 -0.17423229 0.02757228 -0.042235676 0.035962686 0.01703749 0.056977417
0.028595543 -0.0017077875 0.06589621 0.041548077 -0.018993111 0.05855613 0.040551595 0.0055579804
0.036126588 -0.16132021 0.122675695 -0.0010783635 -0.061483193 0.080407046 -0.16546683 0.07138879
0.061754163 0.13118015 -0.041430235 -0.06520639 -0.07017061 -0.017697921 0.12141652 -0.13570815
0.08655412 0.07249137 0.12387466 -0.112114765 0.07614937 0.16268839 0.07102286 -0.05330783
-0.049859095 -0.05491664 0.24024269 0.13272522 0.060121827 0.012537089 -0.10311372 0.009196133
0.064743556 -0.05843337 -0.16561297 -0.19117323 -0.0881108 -0.09315218 0.17382368 0.022361465
-0.15758115 0.1633443 -0.0035703653 0.13834985 0.003916454 -0.093353726 0.08455024 -0.21201436
-0.051810272 -0.041076582 0.04678068 -0.10804561 -0.2324978 -0.03446333 -0.20158175 -0.12246876
0.000992353 -0.13034737 0.04938866 -0.0005486927 0.14517018 0.07982175 0.08941126 -0.124023505
0.08297561 -0.12887639 -0.052029803 -0.05357434 -0.16511291 -0.03301822 0.04857014 0.106665865
-0.21863717 0.11090903 -0.073669024 -0.13446294 -0.012147724 -0.023825906 0.13158144 0.022290476
0.10160166 -0.052777067 0.16932847 0.15706675 -0.070564315 -0.1086494 0.0011227435 -0.052215993
-0.15565759 -0.029827408 -0.022471914 -0.00017241304 0.04509755 -0.16020827 0.091756 0.05052866
0.13871968 0.036276538 0.059446763 -0.16763407 -0.0143074 0.0062280265 -0.0016209835 0.10729383
-0.13530596 -0.052220255 0.030573454 0.05407641 -0.023416284 0.10120126 0.012689027 -0.13237129
0.048101507 -0.010673758 -0.004601553 0.042642266 0.091237135 -0.067096494 -0.09681768 -0.14123031
-0.028532678 0.07181593 0.02781286 0.0827489 -0.11590448 0.024186138 0.043650605 0.033329643
-0.19482745 0.079321735 -0.03553548 -0.031039149 0.023342976 -0.022838593 -0.114078894 -0.061475318
-0.17722727 -0.0057057547 -0.077041104 0.10223942 0.21157666 0.040883023 0.06501782 0.005593517
-0.18048982 -0.039578762 0.07042057 0.10106596 0.07984552 0.16930026 -0.038195275 0.0006862651
0.07124757 -0.12010983 -0.019617826 0.07061367 -0.017953727 0.24104601 -0.04425636 0.09577287
-0.17214526 -0.04826482 0.09126452 0.022661246 -0.12508877 -0.117379196 -0.052813165 -0.08795901
-0.05923909 -0.17696136 -0.18196946 0.15267189 -0.15521243 0.1557093 -0.024059696 -0.13916118
-0.11623961 0.01532742 0.114234455 -0.014618678 0.06664745 -0.06978095 0.16856654 0.05437463

fc1.bias f4 [64]
00000000: 0f61 043e 5120 48be 7a64 f9bd ec18 613e
00000010: 0218 31bd 7187 07be ffd2 ddbd 69b9 583e
00000020: ed09 0c3c 44d1 03be 61e8 c4bd f680 7f3e
00000030: 929c adbd 82f4 56bd a8fe f2bc 86f1 003d
00000040: 3270 293d 38e2 913d 22e9 b2bd 85b2 e9bc
00000050: e691 4e3d 769a 9bbe 1645 d8bc b701 23bd
00000060: 1bd8 563d c1d2 5a3d b877 bbbc 01ca 083e
00000070: eac6 153e 7029 4f3d c239 acbd c398 bebd
00000080: 931b 99bd d53f 2e3d be81 2a3d c5d9 d13d
00000090: ff92 4e3d 9fc0 2abd 2e3a cc3d 4b3e 4bbd
000000a0: 7e3b 9a3d 7a85 71bd 64ca 3c3d 58af 173c
000000b0: 1955 833d 48ee efba 828d 393e 5344 0b3c
000000c0: 94dd 183d f2b8 debd ee5b f7bd a302 c6bb
000000d0: 861c 5b3d 4852 2e3e 799d 4a3d 7c56 2dbd
000000e0: d987 9abe 944d c03d 3d65 4b3e 6add 933c
000000f0: 1536 783d 539c 253d 19ee edbd 8302 b23d
0.1292765 -0.19543578 -0.121773675 0.21982163 -0.043235786 -0.1323526 -0.1083126 0.21164478
0.008547288 -0.12872797 -0.09614635 0.24951538 -0.08477129 -0.052479275 -0.029662445 0.031480335
0.041366763 0.07123226 -0.08735873 -0.028527508 0.05043211 -0.30391282 -0.02640013 -0.039796557
0.052452188 0.053423647 -0.022884235 0.13358308 0.14626661 0.050576627 -0.08409454 -0.09306481
-0.074759625 0.042541344 0.041627638 0.10246614 0.050433155 -0.041687604 0.099720344 -0.049619954
0.075308785 -0.058965184 0.046091452 0.009258114 0.064127155 -0.0018305266 0.18120387 0.0085001765
0.03732069 -0.10875119 -0.12078081 -0.006042795 0.053494 0.17023575 0.049466584 -0.042318806
-0.3018177 0.09389797 0.19862838 0.018049914 0.06059845 0.040432286 -0.11617679 0.08691885
